…
I0710 19:59:34.327836  9991 upgrade_proto.cpp:55] Attempting to upgrade input file specified using deprecated V1LayerParameter: config/googlenet/train.prototxt
I0710 19:59:34.328109  9991 upgrade_proto.cpp:63] Successfully upgraded file specified using deprecated V1LayerParameter
I0710 19:59:34.328788  9991 net.cpp:51] Initializing net from parameters: 
name: "GoogleNet"
state {
  phase: TRAIN
  level: 0
  stage: ""
}
layer {
  name: "data"
  type: "Data"
  top: "data"
  top: "label"
  transform_param {
    mirror: true
    crop_size: 227
    mean_file: "mean/my_mean.binaryproto"
  }
  data_param {
    source: "dataset/train_lmdb"
    batch_size: 16
    backend: LMDB
  }
}
layer {
  name: "conv1/7x7_s2"
  type: "Convolution"
  bottom: "data"
  top: "conv1/7x7_s2"
  param {
    lr_mult: 1
    decay_mult: 1
  }
  param {
    lr_mult: 2
    decay_mult: 0
  }
  convolution_param {
    num_output: 64
    pad: 3
    kernel_size: 7
    stride: 2
    weight_filler {
      type: "xavier"
    }
    bias_filler {
      type: "constant"
      value: 0.2
    }
  }
}
layer {
  name: "conv1/relu_7x7"
  type: "ReLU"
  bottom: "conv1/7x7_s2"
  top: "conv1/7x7_s2"
}
layer {
  name: "pool1/3x3_s2"
  type: "Pooling"
  bottom: "conv1/7x7_s2"
  top: "pool1/3x3_s2"
  pooling_param {
    pool: MAX
    kernel_size: 3
    stride: 2
  }
}
layer {
  name: "pool1/norm1"
  type: "LRN"
  bottom: "pool1/3x3_s2"
  top: "pool1/norm1"
  lrn_param {
    local_size: 5
    alpha: 0.0001
    beta: 0.75
  }
}
layer {
  name: "conv2/3x3_reduce"
  type: "Convolution"
  bottom: "pool1/norm1"
  top: "conv2/3x3_reduce"
  param {
    lr_mult: 1
    decay_mult: 1
  }
  param {
    lr_mult: 2
    decay_mult: 0
  }
  convolution_param {
    num_output: 64
    kernel_size: 1
    weight_filler {
      type: "xavier"
    }
    bias_filler {
      type: "constant"
      value: 0.2
    }
  }
}
layer {
  name: "conv2/relu_3x3_reduce"
  type: "ReLU"
  bottom: "conv2/3x3_reduce"
  top: "conv2/3x3_reduce"
}
layer {
  name: "conv2/3x3"
  type: "Convolution"
  bottom: "conv2/3x3_reduce"
  top: "conv2/3x3"
  param {
    lr_mult: 1
    decay_mult: 1
  }
  param {
    lr_mult: 2
    decay_mult: 0
  }
  convolution_param {
    num_output: 192
    pad: 1
    kernel_size: 3
    weight_filler {
      type: "xavier"
    }
    bias_filler {
      type: "constant"
      value: 0.2
    }
  }
}
layer {
  name: "conv2/relu_3x3"
  type: "ReLU"
  bottom: "conv2/3x3"
  top: "conv2/3x3"
}
layer {
  name: "conv2/norm2"
  type: "LRN"
  bottom: "conv2/3x3"
  top: "conv2/norm2"
  lrn_param {
    local_size: 5
    alpha: 0.0001
    beta: 0.75
  }
}
layer {
  name: "pool2/3x3_s2"
  type: "Pooling"
  bottom: "conv2/norm2"
  top: "pool2/3x3_s2"
  pooling_param {
    pool: MAX
    kernel_size: 3
    stride: 2
  }
}
layer {
  name: "inception_3a/1x1"
  type: "Convolution"
  bottom: "pool2/3x3_s2"
  top: "inception_3a/1x1"
  param {
    lr_mult: 1
    decay_mult: 1
  }
  param {
    lr_mult: 2
    decay_mult: 0
  }
  convolution_param {
    num_output: 64
    kernel_size: 1
    weight_filler {
      type: "xavier"
    }
    bias_filler {
      type: "constant"
      value: 0.2
    }
  }
}
layer {
  name: "inception_3a/relu_1x1"
  type: "ReLU"
  bottom: "inception_3a/1x1"
  top: "inception_3a/1x1"
}
layer {
  name: "inception_3a/3x3_reduce"
  type: "Convolution"
  bottom: "pool2/3x3_s2"
  top: "inception_3a/3x3_reduce"
  param {
    lr_mult: 1
    decay_mult: 1
  }
  param {
    lr_mult: 2
    decay_mult: 0
  }
  convolution_param {
    num_output: 96
    kernel_size: 1
    weight_filler {
      type: "xavier"
    }
    bias_filler {
      type: "constant"
      value: 0.2
    }
  }
}
layer {
  name: "inception_3a/relu_3x3_reduce"
  type: "ReLU"
  bottom: "inception_3a/3x3_reduce"
  top: "inception_3a/3x3_reduce"
}
layer {
  name: "inception_3a/3x3"
  type: "Convolution"
  bottom: "inception_3a/3x3_reduce"
  top: "inception_3a/3x3"
  param {
    lr_mult: 1
    decay_mult: 1
  }
  param {
    lr_mult: 2
    decay_mult: 0
  }
  convolution_param {
    num_output: 128
    pad: 1
    kernel_size: 3
    weight_filler {
      type: "xavier"
    }
    bias_filler {
      type: "constant"
      value: 0.2
    }
  }
}
layer {
  name: "inception_3a/relu_3x3"
  type: "ReLU"
  bottom: "inception_3a/3x3"
  top: "inception_3a/3x3"
}
layer {
  name: "inception_3a/5x5_reduce"
  type: "Convolution"
  bottom: "pool2/3x3_s2"
  top: "inception_3a/5x5_reduce"
  param {
    lr_mult: 1
    decay_mult: 1
  }
  param {
    lr_mult: 2
    decay_mult: 0
  }
  convolution_param {
    num_output: 16
    kernel_size: 1
    weight_filler {
      type: "xavier"
    }
    bias_filler {
      type: "constant"
      value: 0.2
    }
  }
}
layer {
  name: "inception_3a/relu_5x5_reduce"
  type: "ReLU"
  bottom: "inception_3a/5x5_reduce"
  top: "inception_3a/5x5_reduce"
}
layer {
  name: "inception_3a/5x5"
  type: "Convolution"
  bottom: "inception_3a/5x5_reduce"
  top: "inception_3a/5x5"
  param {
    lr_mult: 1
    decay_mult: 1
  }
  param {
    lr_mult: 2
    decay_mult: 0
  }
  convolution_param {
    num_output: 32
    pad: 2
    kernel_size: 5
    weight_filler {
      type: "xavier"
    }
    bias_filler {
      type: "constant"
      value: 0.2
    }
  }
}
layer {
  name: "inception_3a/relu_5x5"
  type: "ReLU"
  bottom: "inception_3a/5x5"
  top: "inception_3a/5x5"
}
layer {
  name: "inception_3a/pool"
  type: "Pooling"
  bottom: "pool2/3x3_s2"
  top: "inception_3a/pool"
  pooling_param {
    pool: AVE
    kernel_size: 3
    stride: 1
    pad: 1
  }
}
layer {
  name: "inception_3a/pool_proj"
  type: "Convolution"
  bottom: "inception_3a/pool"
  top: "inception_3a/pool_proj"
  param {
    lr_mult: 1
    decay_mult: 1
  }
  param {
    lr_mult: 2
    decay_mult: 0
  }
  convolution_param {
    num_output: 32
    kernel_size: 1
    weight_filler {
      type: "xavier"
    }
    bias_filler {
      type: "constant"
      value: 0.2
    }
  }
}
layer {
  name: "inception_3a/relu_pool_proj"
  type: "ReLU"
  bottom: "inception_3a/pool_proj"
  top: "inception_3a/pool_proj"
}
layer {
  name: "inception_3a/output"
  type: "Concat"
  bottom: "inception_3a/1x1"
  bottom: "inception_3a/3x3"
  bottom: "inception_3a/5x5"
  bottom: "inception_3a/pool_proj"
  top: "inception_3a/output"
}
layer {
  name: "temp1"
  type: "InnerProduct"
  bottom: "inception_3a/output"
  top: "temp1"
  param {
    lr_mult: 10
    decay_mult: 1
  }
  param {
    lr_mult: 20
    decay_mult: 0
  }
  inner_product_param {
    num_output: 256
    weight_filler {
      type: "xavier"
    }
    bias_filler {
      type: "constant"
      value: 0.2
    }
  }
}
layer {
  name: "temp1_relu"
  type: "ReLU"
  bottom: "temp1"
  top: "temp1"
}
layer {
  name: "temp1_drop"
  type: "Dropout"
  bottom: "temp1"
  top: "temp1"
  dropout_param {
    dropout_ratio: 0.7
  }
}
layer {
  name: "inception_3b/1x1"
  type: "Convolution"
  bottom: "inception_3a/output"
  top: "inception_3b/1x1"
  param {
    lr_mult: 1
    decay_mult: 1
  }
  param {
    lr_mult: 2
    decay_mult: 0
  }
  convolution_param {
    num_output: 128
    kernel_size: 1
    weight_filler {
      type: "xavier"
    }
    bias_filler {
      type: "constant"
      value: 0.2
    }
  }
}
layer {
  name: "inception_3b/relu_1x1"
  type: "ReLU"
  bottom: "inception_3b/1x1"
  top: "inception_3b/1x1"
}
layer {
  name: "inception_3b/3x3_reduce"
  type: "Convolution"
  bottom: "inception_3a/output"
  top: "inception_3b/3x3_reduce"
  param {
    lr_mult: 1
    decay_mult: 1
  }
  param {
    lr_mult: 2
    decay_mult: 0
  }
  convolution_param {
    num_output: 128
    kernel_size: 1
    weight_filler {
      type: "xavier"
    }
    bias_filler {
      type: "constant"
      value: 0.2
    }
  }
}
layer {
  name: "inception_3b/relu_3x3_reduce"
  type: "ReLU"
  bottom: "inception_3b/3x3_reduce"
  top: "inception_3b/3x3_reduce"
}
layer {
  name: "inception_3b/3x3"
  type: "Convolution"
  bottom: "inception_3b/3x3_reduce"
  top: "inception_3b/3x3"
  param {
    lr_mult: 1
    decay_mult: 1
  }
  param {
    lr_mult: 2
    decay_mult: 0
  }
  convolution_param {
    num_output: 192
    pad: 1
    kernel_size: 3
    weight_filler {
      type: "xavier"
    }
    bias_filler {
      type: "constant"
      value: 0.2
    }
  }
}
layer {
  name: "inception_3b/relu_3x3"
  type: "ReLU"
  bottom: "inception_3b/3x3"
  top: "inception_3b/3x3"
}
layer {
  name: "inception_3b/5x5_reduce"
  type: "Convolution"
  bottom: "inception_3a/output"
  top: "inception_3b/5x5_reduce"
  param {
    lr_mult: 1
    decay_mult: 1
  }
  param {
    lr_mult: 2
    decay_mult: 0
  }
  convolution_param {
    num_output: 32
    kernel_size: 1
    weight_filler {
      type: "xavier"
    }
    bias_filler {
      type: "constant"
      value: 0.2
    }
  }
}
layer {
  name: "inception_3b/relu_5x5_reduce"
  type: "ReLU"
  bottom: "inception_3b/5x5_reduce"
  top: "inception_3b/5x5_reduce"
}
layer {
  name: "inception_3b/5x5"
  type: "Convolution"
  bottom: "inception_3b/5x5_reduce"
  top: "inception_3b/5x5"
  param {
    lr_mult: 1
    decay_mult: 1
  }
  param {
    lr_mult: 2
    decay_mult: 0
  }
  convolution_param {
    num_output: 96
    pad: 2
    kernel_size: 5
    weight_filler {
      type: "xavier"
    }
    bias_filler {
      type: "constant"
      value: 0.2
    }
  }
}
layer {
  name: "inception_3b/relu_5x5"
  type: "ReLU"
  bottom: "inception_3b/5x5"
  top: "inception_3b/5x5"
}
layer {
  name: "inception_3b/pool"
  type: "Pooling"
  bottom: "inception_3a/output"
  top: "inception_3b/pool"
  pooling_param {
    pool: AVE
    kernel_size: 3
    stride: 1
    pad: 1
  }
}
layer {
  name: "inception_3b/pool_proj"
  type: "Convolution"
  bottom: "inception_3b/pool"
  top: "inception_3b/pool_proj"
  param {
    lr_mult: 1
    decay_mult: 1
  }
  param {
    lr_mult: 2
    decay_mult: 0
  }
  convolution_param {
    num_output: 64
    kernel_size: 1
    weight_filler {
      type: "xavier"
    }
    bias_filler {
      type: "constant"
      value: 0.2
    }
  }
}
layer {
  name: "inception_3b/relu_pool_proj"
  type: "ReLU"
  bottom: "inception_3b/pool_proj"
  top: "inception_3b/pool_proj"
}
layer {
  name: "inception_3b/output"
  type: "Concat"
  bottom: "inception_3b/1x1"
  bottom: "inception_3b/3x3"
  bottom: "inception_3b/5x5"
  bottom: "inception_3b/pool_proj"
  top: "inception_3b/output"
}
layer {
  name: "temp2"
  type: "InnerProduct"
  bottom: "inception_3b/output"
  top: "temp2"
  param {
    lr_mult: 10
    decay_mult: 1
  }
  param {
    lr_mult: 20
    decay_mult: 0
  }
  inner_product_param {
    num_output: 256
    weight_filler {
      type: "xavier"
    }
    bias_filler {
      type: "constant"
      value: 0.2
    }
  }
}
layer {
  name: "temp2_relu"
  type: "ReLU"
  bottom: "temp2"
  top: "temp2"
}
layer {
  name: "temp2_drop"
  type: "Dropout"
  bottom: "temp2"
  top: "temp2"
  dropout_param {
    dropout_ratio: 0.7
  }
}
layer {
  name: "pool3/3x3_s2"
  type: "Pooling"
  bottom: "inception_3b/output"
  top: "pool3/3x3_s2"
  pooling_param {
    pool: MAX
    kernel_size: 3
    stride: 2
  }
}
layer {
  name: "inception_4a/1x1"
  type: "Convolution"
  bottom: "pool3/3x3_s2"
  top: "inception_4a/1x1"
  param {
    lr_mult: 1
    decay_mult: 1
  }
  param {
    lr_mult: 2
    decay_mult: 0
  }
  convolution_param {
    num_output: 192
    kernel_size: 1
    weight_filler {
      type: "xavier"
    }
    bias_filler {
      type: "constant"
      value: 0.2
    }
  }
}
layer {
  name: "inception_4a/relu_1x1"
  type: "ReLU"
  bottom: "inception_4a/1x1"
  top: "inception_4a/1x1"
}
layer {
  name: "inception_4a/3x3_reduce"
  type: "Convolution"
  bottom: "pool3/3x3_s2"
  top: "inception_4a/3x3_reduce"
  param {
    lr_mult: 1
    decay_mult: 1
  }
  param {
    lr_mult: 2
    decay_mult: 0
  }
  convolution_param {
    num_output: 96
    kernel_size: 1
    weight_filler {
      type: "xavier"
    }
    bias_filler {
      type: "constant"
      value: 0.2
    }
  }
}
layer {
  name: "inception_4a/relu_3x3_reduce"
  type: "ReLU"
  bottom: "inception_4a/3x3_reduce"
  top: "inception_4a/3x3_reduce"
}
layer {
  name: "inception_4a/3x3"
  type: "Convolution"
  bottom: "inception_4a/3x3_reduce"
  top: "inception_4a/3x3"
  param {
    lr_mult: 1
    decay_mult: 1
  }
  param {
    lr_mult: 2
    decay_mult: 0
  }
  convolution_param {
    num_output: 208
    pad: 1
    kernel_size: 3
    weight_filler {
      type: "xavier"
    }
    bias_filler {
      type: "constant"
      value: 0.2
    }
  }
}
layer {
  name: "inception_4a/relu_3x3"
  type: "ReLU"
  bottom: "inception_4a/3x3"
  top: "inception_4a/3x3"
}
layer {
  name: "inception_4a/5x5_reduce"
  type: "Convolution"
  bottom: "pool3/3x3_s2"
  top: "inception_4a/5x5_reduce"
  param {
    lr_mult: 1
    decay_mult: 1
  }
  param {
    lr_mult: 2
    decay_mult: 0
  }
  convolution_param {
    num_output: 16
    kernel_size: 1
    weight_filler {
      type: "xavier"
    }
    bias_filler {
      type: "constant"
      value: 0.2
    }
  }
}
layer {
  name: "inception_4a/relu_5x5_reduce"
  type: "ReLU"
  bottom: "inception_4a/5x5_reduce"
  top: "inception_4a/5x5_reduce"
}
layer {
  name: "inception_4a/5x5"
  type: "Convolution"
  bottom: "inception_4a/5x5_reduce"
  top: "inception_4a/5x5"
  param {
    lr_mult: 1
    decay_mult: 1
  }
  param {
    lr_mult: 2
    decay_mult: 0
  }
  convolution_param {
    num_output: 48
    pad: 2
    kernel_size: 5
    weight_filler {
      type: "xavier"
    }
    bias_filler {
      type: "constant"
      value: 0.2
    }
  }
}
layer {
  name: "inception_4a/relu_5x5"
  type: "ReLU"
  bottom: "inception_4a/5x5"
  top: "inception_4a/5x5"
}
layer {
  name: "inception_4a/pool"
  type: "Pooling"
  bottom: "pool3/3x3_s2"
  top: "inception_4a/pool"
  pooling_param {
    pool: AVE
    kernel_size: 3
    stride: 1
    pad: 1
  }
}
layer {
  name: "inception_4a/pool_proj"
  type: "Convolution"
  bottom: "inception_4a/pool"
  top: "inception_4a/pool_proj"
  param {
    lr_mult: 1
    decay_mult: 1
  }
  param {
    lr_mult: 2
    decay_mult: 0
  }
  convolution_param {
    num_output: 64
    kernel_size: 1
    weight_filler {
      type: "xavier"
    }
    bias_filler {
      type: "constant"
      value: 0.2
    }
  }
}
layer {
  name: "inception_4a/relu_pool_proj"
  type: "ReLU"
  bottom: "inception_4a/pool_proj"
  top: "inception_4a/pool_proj"
}
layer {
  name: "inception_4a/output"
  type: "Concat"
  bottom: "inception_4a/1x1"
  bottom: "inception_4a/3x3"
  bottom: "inception_4a/5x5"
  bottom: "inception_4a/pool_proj"
  top: "inception_4a/output"
}
layer {
  name: "loss1/ave_pool"
  type: "Pooling"
  bottom: "inception_4a/output"
  top: "loss1/ave_pool"
  pooling_param {
    pool: AVE
    kernel_size: 5
    stride: 3
  }
}
layer {
  name: "loss1/conv"
  type: "Convolution"
  bottom: "loss1/ave_pool"
  top: "loss1/conv"
  param {
    lr_mult: 1
    decay_mult: 1
  }
  param {
    lr_mult: 2
    decay_mult: 0
  }
  convolution_param {
    num_output: 128
    kernel_size: 1
    weight_filler {
      type: "xavier"
    }
    bias_filler {
      type: "constant"
      value: 0.2
    }
  }
}
layer {
  name: "loss1/relu_conv"
  type: "ReLU"
  bottom: "loss1/conv"
  top: "loss1/conv"
}
layer {
  name: "temp3"
  type: "InnerProduct"
  bottom: "loss1/conv"
  top: "temp3"
  param {
    lr_mult: 10
    decay_mult: 1
  }
  param {
    lr_mult: 20
    decay_mult: 0
  }
  inner_product_param {
    num_output: 512
    weight_filler {
      type: "xavier"
    }
    bias_filler {
      type: "constant"
      value: 0.2
    }
  }
}
layer {
  name: "temp3_relu"
  type: "ReLU"
  bottom: "temp3"
  top: "temp3"
}
layer {
  name: "temp3_drop"
  type: "Dropout"
  bottom: "temp3"
  top: "temp3"
  dropout_param {
    dropout_ratio: 0.7
  }
}
layer {
  name: "temp"
  type: "Concat"
  bottom: "temp1"
  bottom: "temp2"
  bottom: "temp3"
  top: "temp"
}
layer {
  name: "temp_cjy"
  type: "InnerProduct"
  bottom: "temp"
  top: "temp_cjy"
  param {
    lr_mult: 10
    decay_mult: 1
  }
  param {
    lr_mult: 20
    decay_mult: 0
  }
  inner_product_param {
    num_output: 1024
    weight_filler {
      type: "xavier"
    }
    bias_filler {
      type: "constant"
      value: 0.2
    }
  }
}
layer {
  name: "temp_cjy_relu"
  type: "ReLU"
  bottom: "temp_cjy"
  top: "temp_cjy"
}
layer {
  name: "temp3_cjy_drop"
  type: "Dropout"
  bottom: "temp_cjy"
  top: "temp_cjy"
  dropout_param {
    dropout_ratio: 0.7
  }
}
layer {
  name: "loss1/classifier_cjy"
  type: "InnerProduct"
  bottom: "temp_cjy"
  top: "loss1/classifier_cjy"
  param {
    lr_mult: 10
    decay_mult: 1
  }
  param {
    lr_mult: 20
    decay_mult: 0
  }
  inner_product_param {
    num_output: 5
    weight_filler {
      type: "xavier"
    }
    bias_filler {
      type: "constant"
      value: 0
    }
  }
}
layer {
  name: "loss1/loss"
  type: "SoftmaxWithLoss"
  bottom: "loss1/classifier_cjy"
  bottom: "label"
}
I0710 19:59:34.329170  9991 layer_factory.hpp:77] Creating layer data
I0710 19:59:34.329308  9991 db_lmdb.cpp:35] Opened lmdb dataset/train_lmdb
I0710 19:59:34.329344  9991 net.cpp:84] Creating Layer data
I0710 19:59:34.329355  9991 net.cpp:380] data -> data
I0710 19:59:34.329376  9991 net.cpp:380] data -> label
I0710 19:59:34.329391  9991 data_transformer.cpp:25] Loading mean file from: mean/my_mean.binaryproto
I0710 19:59:34.332921  9991 data_layer.cpp:45] output data size: 16,3,227,227
I0710 19:59:34.363806  9991 net.cpp:122] Setting up data
I0710 19:59:34.363847  9991 net.cpp:129] Top shape: 16 3 227 227 (2473392)
I0710 19:59:34.363853  9991 net.cpp:129] Top shape: 16 (16)
I0710 19:59:34.363857  9991 net.cpp:137] Memory required for data: 9893632
I0710 19:59:34.363870  9991 layer_factory.hpp:77] Creating layer conv1/7x7_s2
I0710 19:59:34.363899  9991 net.cpp:84] Creating Layer conv1/7x7_s2
I0710 19:59:34.363909  9991 net.cpp:406] conv1/7x7_s2 <- data
I0710 19:59:34.363934  9991 net.cpp:380] conv1/7x7_s2 -> conv1/7x7_s2
I0710 19:59:34.589681  9991 net.cpp:122] Setting up conv1/7x7_s2
I0710 19:59:34.589725  9991 net.cpp:129] Top shape: 16 64 114 114 (13307904)
I0710 19:59:34.589730  9991 net.cpp:137] Memory required for data: 63125248
I0710 19:59:34.589757  9991 layer_factory.hpp:77] Creating layer conv1/relu_7x7
I0710 19:59:34.589773  9991 net.cpp:84] Creating Layer conv1/relu_7x7
I0710 19:59:34.589778  9991 net.cpp:406] conv1/relu_7x7 <- conv1/7x7_s2
I0710 19:59:34.589787  9991 net.cpp:367] conv1/relu_7x7 -> conv1/7x7_s2 (in-place)
I0710 19:59:34.589985  9991 net.cpp:122] Setting up conv1/relu_7x7
I0710 19:59:34.589998  9991 net.cpp:129] Top shape: 16 64 114 114 (13307904)
I0710 19:59:34.590001  9991 net.cpp:137] Memory required for data: 116356864
I0710 19:59:34.590005  9991 layer_factory.hpp:77] Creating layer pool1/3x3_s2
I0710 19:59:34.590014  9991 net.cpp:84] Creating Layer pool1/3x3_s2
I0710 19:59:34.590018  9991 net.cpp:406] pool1/3x3_s2 <- conv1/7x7_s2
I0710 19:59:34.590024  9991 net.cpp:380] pool1/3x3_s2 -> pool1/3x3_s2
I0710 19:59:34.590087  9991 net.cpp:122] Setting up pool1/3x3_s2
I0710 19:59:34.590096  9991 net.cpp:129] Top shape: 16 64 57 57 (3326976)
I0710 19:59:34.590101  9991 net.cpp:137] Memory required for data: 129664768
I0710 19:59:34.590103  9991 layer_factory.hpp:77] Creating layer pool1/norm1
I0710 19:59:34.590114  9991 net.cpp:84] Creating Layer pool1/norm1
I0710 19:59:34.590142  9991 net.cpp:406] pool1/norm1 <- pool1/3x3_s2
I0710 19:59:34.590149  9991 net.cpp:380] pool1/norm1 -> pool1/norm1
I0710 19:59:34.590631  9991 net.cpp:122] Setting up pool1/norm1
I0710 19:59:34.590648  9991 net.cpp:129] Top shape: 16 64 57 57 (3326976)
I0710 19:59:34.590652  9991 net.cpp:137] Memory required for data: 142972672
I0710 19:59:34.590656  9991 layer_factory.hpp:77] Creating layer conv2/3x3_reduce
I0710 19:59:34.590672  9991 net.cpp:84] Creating Layer conv2/3x3_reduce
I0710 19:59:34.590677  9991 net.cpp:406] conv2/3x3_reduce <- pool1/norm1
I0710 19:59:34.590684  9991 net.cpp:380] conv2/3x3_reduce -> conv2/3x3_reduce
I0710 19:59:34.592877  9991 net.cpp:122] Setting up conv2/3x3_reduce
I0710 19:59:34.592895  9991 net.cpp:129] Top shape: 16 64 57 57 (3326976)
I0710 19:59:34.592900  9991 net.cpp:137] Memory required for data: 156280576
I0710 19:59:34.592909  9991 layer_factory.hpp:77] Creating layer conv2/relu_3x3_reduce
I0710 19:59:34.592916  9991 net.cpp:84] Creating Layer conv2/relu_3x3_reduce
I0710 19:59:34.592921  9991 net.cpp:406] conv2/relu_3x3_reduce <- conv2/3x3_reduce
I0710 19:59:34.592929  9991 net.cpp:367] conv2/relu_3x3_reduce -> conv2/3x3_reduce (in-place)
I0710 19:59:34.593135  9991 net.cpp:122] Setting up conv2/relu_3x3_reduce
I0710 19:59:34.593150  9991 net.cpp:129] Top shape: 16 64 57 57 (3326976)
I0710 19:59:34.593153  9991 net.cpp:137] Memory required for data: 169588480
I0710 19:59:34.593158  9991 layer_factory.hpp:77] Creating layer conv2/3x3
I0710 19:59:34.593169  9991 net.cpp:84] Creating Layer conv2/3x3
I0710 19:59:34.593173  9991 net.cpp:406] conv2/3x3 <- conv2/3x3_reduce
I0710 19:59:34.593180  9991 net.cpp:380] conv2/3x3 -> conv2/3x3
I0710 19:59:34.596271  9991 net.cpp:122] Setting up conv2/3x3
I0710 19:59:34.596290  9991 net.cpp:129] Top shape: 16 192 57 57 (9980928)
I0710 19:59:34.596294  9991 net.cpp:137] Memory required for data: 209512192
I0710 19:59:34.596305  9991 layer_factory.hpp:77] Creating layer conv2/relu_3x3
I0710 19:59:34.596316  9991 net.cpp:84] Creating Layer conv2/relu_3x3
I0710 19:59:34.596320  9991 net.cpp:406] conv2/relu_3x3 <- conv2/3x3
I0710 19:59:34.596328  9991 net.cpp:367] conv2/relu_3x3 -> conv2/3x3 (in-place)
I0710 19:59:34.596796  9991 net.cpp:122] Setting up conv2/relu_3x3
I0710 19:59:34.596812  9991 net.cpp:129] Top shape: 16 192 57 57 (9980928)
I0710 19:59:34.596815  9991 net.cpp:137] Memory required for data: 249435904
I0710 19:59:34.596819  9991 layer_factory.hpp:77] Creating layer conv2/norm2
I0710 19:59:34.596829  9991 net.cpp:84] Creating Layer conv2/norm2
I0710 19:59:34.596833  9991 net.cpp:406] conv2/norm2 <- conv2/3x3
I0710 19:59:34.596841  9991 net.cpp:380] conv2/norm2 -> conv2/norm2
I0710 19:59:34.597084  9991 net.cpp:122] Setting up conv2/norm2
I0710 19:59:34.597098  9991 net.cpp:129] Top shape: 16 192 57 57 (9980928)
I0710 19:59:34.597102  9991 net.cpp:137] Memory required for data: 289359616
I0710 19:59:34.597106  9991 layer_factory.hpp:77] Creating layer pool2/3x3_s2
I0710 19:59:34.597112  9991 net.cpp:84] Creating Layer pool2/3x3_s2
I0710 19:59:34.597116  9991 net.cpp:406] pool2/3x3_s2 <- conv2/norm2
I0710 19:59:34.597121  9991 net.cpp:380] pool2/3x3_s2 -> pool2/3x3_s2
I0710 19:59:34.597167  9991 net.cpp:122] Setting up pool2/3x3_s2
I0710 19:59:34.597175  9991 net.cpp:129] Top shape: 16 192 28 28 (2408448)
I0710 19:59:34.597178  9991 net.cpp:137] Memory required for data: 298993408
I0710 19:59:34.597182  9991 layer_factory.hpp:77] Creating layer pool2/3x3_s2_pool2/3x3_s2_0_split
I0710 19:59:34.597190  9991 net.cpp:84] Creating Layer pool2/3x3_s2_pool2/3x3_s2_0_split
I0710 19:59:34.597194  9991 net.cpp:406] pool2/3x3_s2_pool2/3x3_s2_0_split <- pool2/3x3_s2
I0710 19:59:34.597203  9991 net.cpp:380] pool2/3x3_s2_pool2/3x3_s2_0_split -> pool2/3x3_s2_pool2/3x3_s2_0_split_0
I0710 19:59:34.597209  9991 net.cpp:380] pool2/3x3_s2_pool2/3x3_s2_0_split -> pool2/3x3_s2_pool2/3x3_s2_0_split_1
I0710 19:59:34.597215  9991 net.cpp:380] pool2/3x3_s2_pool2/3x3_s2_0_split -> pool2/3x3_s2_pool2/3x3_s2_0_split_2
I0710 19:59:34.597221  9991 net.cpp:380] pool2/3x3_s2_pool2/3x3_s2_0_split -> pool2/3x3_s2_pool2/3x3_s2_0_split_3
I0710 19:59:34.597302  9991 net.cpp:122] Setting up pool2/3x3_s2_pool2/3x3_s2_0_split
I0710 19:59:34.597312  9991 net.cpp:129] Top shape: 16 192 28 28 (2408448)
I0710 19:59:34.597316  9991 net.cpp:129] Top shape: 16 192 28 28 (2408448)
I0710 19:59:34.597321  9991 net.cpp:129] Top shape: 16 192 28 28 (2408448)
I0710 19:59:34.597326  9991 net.cpp:129] Top shape: 16 192 28 28 (2408448)
I0710 19:59:34.597328  9991 net.cpp:137] Memory required for data: 337528576
I0710 19:59:34.597332  9991 layer_factory.hpp:77] Creating layer inception_3a/1x1
I0710 19:59:34.597345  9991 net.cpp:84] Creating Layer inception_3a/1x1
I0710 19:59:34.597349  9991 net.cpp:406] inception_3a/1x1 <- pool2/3x3_s2_pool2/3x3_s2_0_split_0
I0710 19:59:34.597358  9991 net.cpp:380] inception_3a/1x1 -> inception_3a/1x1
I0710 19:59:34.599493  9991 net.cpp:122] Setting up inception_3a/1x1
I0710 19:59:34.599521  9991 net.cpp:129] Top shape: 16 64 28 28 (802816)
I0710 19:59:34.599525  9991 net.cpp:137] Memory required for data: 340739840
I0710 19:59:34.599532  9991 layer_factory.hpp:77] Creating layer inception_3a/relu_1x1
I0710 19:59:34.599539  9991 net.cpp:84] Creating Layer inception_3a/relu_1x1
I0710 19:59:34.599544  9991 net.cpp:406] inception_3a/relu_1x1 <- inception_3a/1x1
I0710 19:59:34.599551  9991 net.cpp:367] inception_3a/relu_1x1 -> inception_3a/1x1 (in-place)
I0710 19:59:34.599748  9991 net.cpp:122] Setting up inception_3a/relu_1x1
I0710 19:59:34.599759  9991 net.cpp:129] Top shape: 16 64 28 28 (802816)
I0710 19:59:34.599762  9991 net.cpp:137] Memory required for data: 343951104
I0710 19:59:34.599766  9991 layer_factory.hpp:77] Creating layer inception_3a/3x3_reduce
I0710 19:59:34.599778  9991 net.cpp:84] Creating Layer inception_3a/3x3_reduce
I0710 19:59:34.599782  9991 net.cpp:406] inception_3a/3x3_reduce <- pool2/3x3_s2_pool2/3x3_s2_0_split_1
I0710 19:59:34.599790  9991 net.cpp:380] inception_3a/3x3_reduce -> inception_3a/3x3_reduce
I0710 19:59:34.602151  9991 net.cpp:122] Setting up inception_3a/3x3_reduce
I0710 19:59:34.602182  9991 net.cpp:129] Top shape: 16 96 28 28 (1204224)
I0710 19:59:34.602186  9991 net.cpp:137] Memory required for data: 348768000
I0710 19:59:34.602197  9991 layer_factory.hpp:77] Creating layer inception_3a/relu_3x3_reduce
I0710 19:59:34.602206  9991 net.cpp:84] Creating Layer inception_3a/relu_3x3_reduce
I0710 19:59:34.602210  9991 net.cpp:406] inception_3a/relu_3x3_reduce <- inception_3a/3x3_reduce
I0710 19:59:34.602216  9991 net.cpp:367] inception_3a/relu_3x3_reduce -> inception_3a/3x3_reduce (in-place)
I0710 19:59:34.602690  9991 net.cpp:122] Setting up inception_3a/relu_3x3_reduce
I0710 19:59:34.602716  9991 net.cpp:129] Top shape: 16 96 28 28 (1204224)
I0710 19:59:34.602720  9991 net.cpp:137] Memory required for data: 353584896
I0710 19:59:34.602723  9991 layer_factory.hpp:77] Creating layer inception_3a/3x3
I0710 19:59:34.602741  9991 net.cpp:84] Creating Layer inception_3a/3x3
I0710 19:59:34.602744  9991 net.cpp:406] inception_3a/3x3 <- inception_3a/3x3_reduce
I0710 19:59:34.602763  9991 net.cpp:380] inception_3a/3x3 -> inception_3a/3x3
I0710 19:59:34.604687  9991 net.cpp:122] Setting up inception_3a/3x3
I0710 19:59:34.604715  9991 net.cpp:129] Top shape: 16 128 28 28 (1605632)
I0710 19:59:34.604719  9991 net.cpp:137] Memory required for data: 360007424
I0710 19:59:34.604727  9991 layer_factory.hpp:77] Creating layer inception_3a/relu_3x3
I0710 19:59:34.604733  9991 net.cpp:84] Creating Layer inception_3a/relu_3x3
I0710 19:59:34.604737  9991 net.cpp:406] inception_3a/relu_3x3 <- inception_3a/3x3
I0710 19:59:34.604744  9991 net.cpp:367] inception_3a/relu_3x3 -> inception_3a/3x3 (in-place)
I0710 19:59:34.604948  9991 net.cpp:122] Setting up inception_3a/relu_3x3
I0710 19:59:34.604959  9991 net.cpp:129] Top shape: 16 128 28 28 (1605632)
I0710 19:59:34.604964  9991 net.cpp:137] Memory required for data: 366429952
I0710 19:59:34.604966  9991 layer_factory.hpp:77] Creating layer inception_3a/5x5_reduce
I0710 19:59:34.604977  9991 net.cpp:84] Creating Layer inception_3a/5x5_reduce
I0710 19:59:34.604997  9991 net.cpp:406] inception_3a/5x5_reduce <- pool2/3x3_s2_pool2/3x3_s2_0_split_2
I0710 19:59:34.605007  9991 net.cpp:380] inception_3a/5x5_reduce -> inception_3a/5x5_reduce
I0710 19:59:34.606390  9991 net.cpp:122] Setting up inception_3a/5x5_reduce
I0710 19:59:34.606421  9991 net.cpp:129] Top shape: 16 16 28 28 (200704)
I0710 19:59:34.606426  9991 net.cpp:137] Memory required for data: 367232768
I0710 19:59:34.606432  9991 layer_factory.hpp:77] Creating layer inception_3a/relu_5x5_reduce
I0710 19:59:34.606439  9991 net.cpp:84] Creating Layer inception_3a/relu_5x5_reduce
I0710 19:59:34.606442  9991 net.cpp:406] inception_3a/relu_5x5_reduce <- inception_3a/5x5_reduce
I0710 19:59:34.606447  9991 net.cpp:367] inception_3a/relu_5x5_reduce -> inception_3a/5x5_reduce (in-place)
I0710 19:59:34.606647  9991 net.cpp:122] Setting up inception_3a/relu_5x5_reduce
I0710 19:59:34.606658  9991 net.cpp:129] Top shape: 16 16 28 28 (200704)
I0710 19:59:34.606662  9991 net.cpp:137] Memory required for data: 368035584
I0710 19:59:34.606665  9991 layer_factory.hpp:77] Creating layer inception_3a/5x5
I0710 19:59:34.606678  9991 net.cpp:84] Creating Layer inception_3a/5x5
I0710 19:59:34.606683  9991 net.cpp:406] inception_3a/5x5 <- inception_3a/5x5_reduce
I0710 19:59:34.606689  9991 net.cpp:380] inception_3a/5x5 -> inception_3a/5x5
I0710 19:59:34.608602  9991 net.cpp:122] Setting up inception_3a/5x5
I0710 19:59:34.608628  9991 net.cpp:129] Top shape: 16 32 28 28 (401408)
I0710 19:59:34.608631  9991 net.cpp:137] Memory required for data: 369641216
I0710 19:59:34.608639  9991 layer_factory.hpp:77] Creating layer inception_3a/relu_5x5
I0710 19:59:34.608644  9991 net.cpp:84] Creating Layer inception_3a/relu_5x5
I0710 19:59:34.608649  9991 net.cpp:406] inception_3a/relu_5x5 <- inception_3a/5x5
I0710 19:59:34.608655  9991 net.cpp:367] inception_3a/relu_5x5 -> inception_3a/5x5 (in-place)
I0710 19:59:34.609143  9991 net.cpp:122] Setting up inception_3a/relu_5x5
I0710 19:59:34.609169  9991 net.cpp:129] Top shape: 16 32 28 28 (401408)
I0710 19:59:34.609171  9991 net.cpp:137] Memory required for data: 371246848
I0710 19:59:34.609175  9991 layer_factory.hpp:77] Creating layer inception_3a/pool
I0710 19:59:34.609182  9991 net.cpp:84] Creating Layer inception_3a/pool
I0710 19:59:34.609186  9991 net.cpp:406] inception_3a/pool <- pool2/3x3_s2_pool2/3x3_s2_0_split_3
I0710 19:59:34.609194  9991 net.cpp:380] inception_3a/pool -> inception_3a/pool
I0710 19:59:34.609423  9991 net.cpp:122] Setting up inception_3a/pool
I0710 19:59:34.609436  9991 net.cpp:129] Top shape: 16 192 28 28 (2408448)
I0710 19:59:34.609439  9991 net.cpp:137] Memory required for data: 380880640
I0710 19:59:34.609443  9991 layer_factory.hpp:77] Creating layer inception_3a/pool_proj
I0710 19:59:34.609464  9991 net.cpp:84] Creating Layer inception_3a/pool_proj
I0710 19:59:34.609470  9991 net.cpp:406] inception_3a/pool_proj <- inception_3a/pool
I0710 19:59:34.609480  9991 net.cpp:380] inception_3a/pool_proj -> inception_3a/pool_proj
I0710 19:59:34.610826  9991 net.cpp:122] Setting up inception_3a/pool_proj
I0710 19:59:34.610841  9991 net.cpp:129] Top shape: 16 32 28 28 (401408)
I0710 19:59:34.610857  9991 net.cpp:137] Memory required for data: 382486272
I0710 19:59:34.610868  9991 layer_factory.hpp:77] Creating layer inception_3a/relu_pool_proj
I0710 19:59:34.610875  9991 net.cpp:84] Creating Layer inception_3a/relu_pool_proj
I0710 19:59:34.610879  9991 net.cpp:406] inception_3a/relu_pool_proj <- inception_3a/pool_proj
I0710 19:59:34.610898  9991 net.cpp:367] inception_3a/relu_pool_proj -> inception_3a/pool_proj (in-place)
I0710 19:59:34.611369  9991 net.cpp:122] Setting up inception_3a/relu_pool_proj
I0710 19:59:34.611397  9991 net.cpp:129] Top shape: 16 32 28 28 (401408)
I0710 19:59:34.611400  9991 net.cpp:137] Memory required for data: 384091904
I0710 19:59:34.611403  9991 layer_factory.hpp:77] Creating layer inception_3a/output
I0710 19:59:34.611412  9991 net.cpp:84] Creating Layer inception_3a/output
I0710 19:59:34.611414  9991 net.cpp:406] inception_3a/output <- inception_3a/1x1
I0710 19:59:34.611443  9991 net.cpp:406] inception_3a/output <- inception_3a/3x3
I0710 19:59:34.611448  9991 net.cpp:406] inception_3a/output <- inception_3a/5x5
I0710 19:59:34.611451  9991 net.cpp:406] inception_3a/output <- inception_3a/pool_proj
I0710 19:59:34.611456  9991 net.cpp:380] inception_3a/output -> inception_3a/output
I0710 19:59:34.611495  9991 net.cpp:122] Setting up inception_3a/output
I0710 19:59:34.611505  9991 net.cpp:129] Top shape: 16 256 28 28 (3211264)
I0710 19:59:34.611507  9991 net.cpp:137] Memory required for data: 396936960
I0710 19:59:34.611511  9991 layer_factory.hpp:77] Creating layer inception_3a/output_inception_3a/output_0_split
I0710 19:59:34.611518  9991 net.cpp:84] Creating Layer inception_3a/output_inception_3a/output_0_split
I0710 19:59:34.611521  9991 net.cpp:406] inception_3a/output_inception_3a/output_0_split <- inception_3a/output
I0710 19:59:34.611529  9991 net.cpp:380] inception_3a/output_inception_3a/output_0_split -> inception_3a/output_inception_3a/output_0_split_0
I0710 19:59:34.611537  9991 net.cpp:380] inception_3a/output_inception_3a/output_0_split -> inception_3a/output_inception_3a/output_0_split_1
I0710 19:59:34.611543  9991 net.cpp:380] inception_3a/output_inception_3a/output_0_split -> inception_3a/output_inception_3a/output_0_split_2
I0710 19:59:34.611549  9991 net.cpp:380] inception_3a/output_inception_3a/output_0_split -> inception_3a/output_inception_3a/output_0_split_3
I0710 19:59:34.611557  9991 net.cpp:380] inception_3a/output_inception_3a/output_0_split -> inception_3a/output_inception_3a/output_0_split_4
I0710 19:59:34.611644  9991 net.cpp:122] Setting up inception_3a/output_inception_3a/output_0_split
I0710 19:59:34.611652  9991 net.cpp:129] Top shape: 16 256 28 28 (3211264)
I0710 19:59:34.611656  9991 net.cpp:129] Top shape: 16 256 28 28 (3211264)
I0710 19:59:34.611660  9991 net.cpp:129] Top shape: 16 256 28 28 (3211264)
I0710 19:59:34.611663  9991 net.cpp:129] Top shape: 16 256 28 28 (3211264)
I0710 19:59:34.611666  9991 net.cpp:129] Top shape: 16 256 28 28 (3211264)
I0710 19:59:34.611670  9991 net.cpp:137] Memory required for data: 461162240
I0710 19:59:34.611672  9991 layer_factory.hpp:77] Creating layer temp1
I0710 19:59:34.611680  9991 net.cpp:84] Creating Layer temp1
I0710 19:59:34.611685  9991 net.cpp:406] temp1 <- inception_3a/output_inception_3a/output_0_split_0
I0710 19:59:34.611691  9991 net.cpp:380] temp1 -> temp1
I0710 19:59:34.998440  9991 net.cpp:122] Setting up temp1
I0710 19:59:34.998492  9991 net.cpp:129] Top shape: 16 256 (4096)
I0710 19:59:34.998497  9991 net.cpp:137] Memory required for data: 461178624
I0710 19:59:34.998508  9991 layer_factory.hpp:77] Creating layer temp1_relu
I0710 19:59:34.998522  9991 net.cpp:84] Creating Layer temp1_relu
I0710 19:59:34.998525  9991 net.cpp:406] temp1_relu <- temp1
I0710 19:59:34.998534  9991 net.cpp:367] temp1_relu -> temp1 (in-place)
I0710 19:59:34.998790  9991 net.cpp:122] Setting up temp1_relu
I0710 19:59:34.998800  9991 net.cpp:129] Top shape: 16 256 (4096)
I0710 19:59:34.998802  9991 net.cpp:137] Memory required for data: 461195008
I0710 19:59:34.998805  9991 layer_factory.hpp:77] Creating layer temp1_drop
I0710 19:59:34.998814  9991 net.cpp:84] Creating Layer temp1_drop
I0710 19:59:34.998817  9991 net.cpp:406] temp1_drop <- temp1
I0710 19:59:34.998822  9991 net.cpp:367] temp1_drop -> temp1 (in-place)
I0710 19:59:34.998855  9991 net.cpp:122] Setting up temp1_drop
I0710 19:59:34.998862  9991 net.cpp:129] Top shape: 16 256 (4096)
I0710 19:59:34.998865  9991 net.cpp:137] Memory required for data: 461211392
I0710 19:59:34.998868  9991 layer_factory.hpp:77] Creating layer inception_3b/1x1
I0710 19:59:34.998881  9991 net.cpp:84] Creating Layer inception_3b/1x1
I0710 19:59:34.998888  9991 net.cpp:406] inception_3b/1x1 <- inception_3a/output_inception_3a/output_0_split_1
I0710 19:59:34.998896  9991 net.cpp:380] inception_3b/1x1 -> inception_3b/1x1
I0710 19:59:35.000519  9991 net.cpp:122] Setting up inception_3b/1x1
I0710 19:59:35.000546  9991 net.cpp:129] Top shape: 16 128 28 28 (1605632)
I0710 19:59:35.000567  9991 net.cpp:137] Memory required for data: 467633920
I0710 19:59:35.000574  9991 layer_factory.hpp:77] Creating layer inception_3b/relu_1x1
I0710 19:59:35.000581  9991 net.cpp:84] Creating Layer inception_3b/relu_1x1
I0710 19:59:35.000586  9991 net.cpp:406] inception_3b/relu_1x1 <- inception_3b/1x1
I0710 19:59:35.000592  9991 net.cpp:367] inception_3b/relu_1x1 -> inception_3b/1x1 (in-place)
I0710 19:59:35.000780  9991 net.cpp:122] Setting up inception_3b/relu_1x1
I0710 19:59:35.000792  9991 net.cpp:129] Top shape: 16 128 28 28 (1605632)
I0710 19:59:35.000794  9991 net.cpp:137] Memory required for data: 474056448
I0710 19:59:35.000797  9991 layer_factory.hpp:77] Creating layer inception_3b/3x3_reduce
I0710 19:59:35.000818  9991 net.cpp:84] Creating Layer inception_3b/3x3_reduce
I0710 19:59:35.000823  9991 net.cpp:406] inception_3b/3x3_reduce <- inception_3a/output_inception_3a/output_0_split_2
I0710 19:59:35.000829  9991 net.cpp:380] inception_3b/3x3_reduce -> inception_3b/3x3_reduce
I0710 19:59:35.002296  9991 net.cpp:122] Setting up inception_3b/3x3_reduce
I0710 19:59:35.002324  9991 net.cpp:129] Top shape: 16 128 28 28 (1605632)
I0710 19:59:35.002327  9991 net.cpp:137] Memory required for data: 480478976
I0710 19:59:35.002334  9991 layer_factory.hpp:77] Creating layer inception_3b/relu_3x3_reduce
I0710 19:59:35.002341  9991 net.cpp:84] Creating Layer inception_3b/relu_3x3_reduce
I0710 19:59:35.002344  9991 net.cpp:406] inception_3b/relu_3x3_reduce <- inception_3b/3x3_reduce
I0710 19:59:35.002351  9991 net.cpp:367] inception_3b/relu_3x3_reduce -> inception_3b/3x3_reduce (in-place)
I0710 19:59:35.002779  9991 net.cpp:122] Setting up inception_3b/relu_3x3_reduce
I0710 19:59:35.002804  9991 net.cpp:129] Top shape: 16 128 28 28 (1605632)
I0710 19:59:35.002807  9991 net.cpp:137] Memory required for data: 486901504
I0710 19:59:35.002810  9991 layer_factory.hpp:77] Creating layer inception_3b/3x3
I0710 19:59:35.002823  9991 net.cpp:84] Creating Layer inception_3b/3x3
I0710 19:59:35.002827  9991 net.cpp:406] inception_3b/3x3 <- inception_3b/3x3_reduce
I0710 19:59:35.002833  9991 net.cpp:380] inception_3b/3x3 -> inception_3b/3x3
I0710 19:59:35.006027  9991 net.cpp:122] Setting up inception_3b/3x3
I0710 19:59:35.006053  9991 net.cpp:129] Top shape: 16 192 28 28 (2408448)
I0710 19:59:35.006058  9991 net.cpp:137] Memory required for data: 496535296
I0710 19:59:35.006064  9991 layer_factory.hpp:77] Creating layer inception_3b/relu_3x3
I0710 19:59:35.006072  9991 net.cpp:84] Creating Layer inception_3b/relu_3x3
I0710 19:59:35.006076  9991 net.cpp:406] inception_3b/relu_3x3 <- inception_3b/3x3
I0710 19:59:35.006081  9991 net.cpp:367] inception_3b/relu_3x3 -> inception_3b/3x3 (in-place)
I0710 19:59:35.006268  9991 net.cpp:122] Setting up inception_3b/relu_3x3
I0710 19:59:35.006278  9991 net.cpp:129] Top shape: 16 192 28 28 (2408448)
I0710 19:59:35.006281  9991 net.cpp:137] Memory required for data: 506169088
I0710 19:59:35.006285  9991 layer_factory.hpp:77] Creating layer inception_3b/5x5_reduce
I0710 19:59:35.006295  9991 net.cpp:84] Creating Layer inception_3b/5x5_reduce
I0710 19:59:35.006299  9991 net.cpp:406] inception_3b/5x5_reduce <- inception_3a/output_inception_3a/output_0_split_3
I0710 19:59:35.006307  9991 net.cpp:380] inception_3b/5x5_reduce -> inception_3b/5x5_reduce
I0710 19:59:35.007645  9991 net.cpp:122] Setting up inception_3b/5x5_reduce
I0710 19:59:35.007658  9991 net.cpp:129] Top shape: 16 32 28 28 (401408)
I0710 19:59:35.007674  9991 net.cpp:137] Memory required for data: 507774720
I0710 19:59:35.007680  9991 layer_factory.hpp:77] Creating layer inception_3b/relu_5x5_reduce
I0710 19:59:35.007688  9991 net.cpp:84] Creating Layer inception_3b/relu_5x5_reduce
I0710 19:59:35.007692  9991 net.cpp:406] inception_3b/relu_5x5_reduce <- inception_3b/5x5_reduce
I0710 19:59:35.007697  9991 net.cpp:367] inception_3b/relu_5x5_reduce -> inception_3b/5x5_reduce (in-place)
I0710 19:59:35.007879  9991 net.cpp:122] Setting up inception_3b/relu_5x5_reduce
I0710 19:59:35.007890  9991 net.cpp:129] Top shape: 16 32 28 28 (401408)
I0710 19:59:35.007905  9991 net.cpp:137] Memory required for data: 509380352
I0710 19:59:35.007910  9991 layer_factory.hpp:77] Creating layer inception_3b/5x5
I0710 19:59:35.007920  9991 net.cpp:84] Creating Layer inception_3b/5x5
I0710 19:59:35.007925  9991 net.cpp:406] inception_3b/5x5 <- inception_3b/5x5_reduce
I0710 19:59:35.007935  9991 net.cpp:380] inception_3b/5x5 -> inception_3b/5x5
I0710 19:59:35.009727  9991 net.cpp:122] Setting up inception_3b/5x5
I0710 19:59:35.009740  9991 net.cpp:129] Top shape: 16 96 28 28 (1204224)
I0710 19:59:35.009757  9991 net.cpp:137] Memory required for data: 514197248
I0710 19:59:35.009763  9991 layer_factory.hpp:77] Creating layer inception_3b/relu_5x5
I0710 19:59:35.009768  9991 net.cpp:84] Creating Layer inception_3b/relu_5x5
I0710 19:59:35.009773  9991 net.cpp:406] inception_3b/relu_5x5 <- inception_3b/5x5
I0710 19:59:35.009779  9991 net.cpp:367] inception_3b/relu_5x5 -> inception_3b/5x5 (in-place)
I0710 19:59:35.010216  9991 net.cpp:122] Setting up inception_3b/relu_5x5
I0710 19:59:35.010241  9991 net.cpp:129] Top shape: 16 96 28 28 (1204224)
I0710 19:59:35.010244  9991 net.cpp:137] Memory required for data: 519014144
I0710 19:59:35.010248  9991 layer_factory.hpp:77] Creating layer inception_3b/pool
I0710 19:59:35.010257  9991 net.cpp:84] Creating Layer inception_3b/pool
I0710 19:59:35.010260  9991 net.cpp:406] inception_3b/pool <- inception_3a/output_inception_3a/output_0_split_4
I0710 19:59:35.010267  9991 net.cpp:380] inception_3b/pool -> inception_3b/pool
I0710 19:59:35.010485  9991 net.cpp:122] Setting up inception_3b/pool
I0710 19:59:35.010496  9991 net.cpp:129] Top shape: 16 256 28 28 (3211264)
I0710 19:59:35.010499  9991 net.cpp:137] Memory required for data: 531859200
I0710 19:59:35.010502  9991 layer_factory.hpp:77] Creating layer inception_3b/pool_proj
I0710 19:59:35.010514  9991 net.cpp:84] Creating Layer inception_3b/pool_proj
I0710 19:59:35.010517  9991 net.cpp:406] inception_3b/pool_proj <- inception_3b/pool
I0710 19:59:35.010525  9991 net.cpp:380] inception_3b/pool_proj -> inception_3b/pool_proj
I0710 19:59:35.012166  9991 net.cpp:122] Setting up inception_3b/pool_proj
I0710 19:59:35.012192  9991 net.cpp:129] Top shape: 16 64 28 28 (802816)
I0710 19:59:35.012197  9991 net.cpp:137] Memory required for data: 535070464
I0710 19:59:35.012202  9991 layer_factory.hpp:77] Creating layer inception_3b/relu_pool_proj
I0710 19:59:35.012210  9991 net.cpp:84] Creating Layer inception_3b/relu_pool_proj
I0710 19:59:35.012225  9991 net.cpp:406] inception_3b/relu_pool_proj <- inception_3b/pool_proj
I0710 19:59:35.012230  9991 net.cpp:367] inception_3b/relu_pool_proj -> inception_3b/pool_proj (in-place)
I0710 19:59:35.012672  9991 net.cpp:122] Setting up inception_3b/relu_pool_proj
I0710 19:59:35.012696  9991 net.cpp:129] Top shape: 16 64 28 28 (802816)
I0710 19:59:35.012701  9991 net.cpp:137] Memory required for data: 538281728
I0710 19:59:35.012703  9991 layer_factory.hpp:77] Creating layer inception_3b/output
I0710 19:59:35.012711  9991 net.cpp:84] Creating Layer inception_3b/output
I0710 19:59:35.012717  9991 net.cpp:406] inception_3b/output <- inception_3b/1x1
I0710 19:59:35.012722  9991 net.cpp:406] inception_3b/output <- inception_3b/3x3
I0710 19:59:35.012727  9991 net.cpp:406] inception_3b/output <- inception_3b/5x5
I0710 19:59:35.012729  9991 net.cpp:406] inception_3b/output <- inception_3b/pool_proj
I0710 19:59:35.012734  9991 net.cpp:380] inception_3b/output -> inception_3b/output
I0710 19:59:35.012769  9991 net.cpp:122] Setting up inception_3b/output
I0710 19:59:35.012778  9991 net.cpp:129] Top shape: 16 480 28 28 (6021120)
I0710 19:59:35.012780  9991 net.cpp:137] Memory required for data: 562366208
I0710 19:59:35.012784  9991 layer_factory.hpp:77] Creating layer inception_3b/output_inception_3b/output_0_split
I0710 19:59:35.012789  9991 net.cpp:84] Creating Layer inception_3b/output_inception_3b/output_0_split
I0710 19:59:35.012792  9991 net.cpp:406] inception_3b/output_inception_3b/output_0_split <- inception_3b/output
I0710 19:59:35.012812  9991 net.cpp:380] inception_3b/output_inception_3b/output_0_split -> inception_3b/output_inception_3b/output_0_split_0
I0710 19:59:35.012820  9991 net.cpp:380] inception_3b/output_inception_3b/output_0_split -> inception_3b/output_inception_3b/output_0_split_1
I0710 19:59:35.012863  9991 net.cpp:122] Setting up inception_3b/output_inception_3b/output_0_split
I0710 19:59:35.012871  9991 net.cpp:129] Top shape: 16 480 28 28 (6021120)
I0710 19:59:35.012876  9991 net.cpp:129] Top shape: 16 480 28 28 (6021120)
I0710 19:59:35.012878  9991 net.cpp:137] Memory required for data: 610535168
I0710 19:59:35.012881  9991 layer_factory.hpp:77] Creating layer temp2
I0710 19:59:35.012889  9991 net.cpp:84] Creating Layer temp2
I0710 19:59:35.012892  9991 net.cpp:406] temp2 <- inception_3b/output_inception_3b/output_0_split_0
I0710 19:59:35.012899  9991 net.cpp:380] temp2 -> temp2
I0710 19:59:35.721181  9991 net.cpp:122] Setting up temp2
I0710 19:59:35.721241  9991 net.cpp:129] Top shape: 16 256 (4096)
I0710 19:59:35.721246  9991 net.cpp:137] Memory required for data: 610551552
I0710 19:59:35.721285  9991 layer_factory.hpp:77] Creating layer temp2_relu
I0710 19:59:35.721302  9991 net.cpp:84] Creating Layer temp2_relu
I0710 19:59:35.721318  9991 net.cpp:406] temp2_relu <- temp2
I0710 19:59:35.721328  9991 net.cpp:367] temp2_relu -> temp2 (in-place)
I0710 19:59:35.721806  9991 net.cpp:122] Setting up temp2_relu
I0710 19:59:35.721832  9991 net.cpp:129] Top shape: 16 256 (4096)
I0710 19:59:35.721835  9991 net.cpp:137] Memory required for data: 610567936
I0710 19:59:35.721838  9991 layer_factory.hpp:77] Creating layer temp2_drop
I0710 19:59:35.721849  9991 net.cpp:84] Creating Layer temp2_drop
I0710 19:59:35.721853  9991 net.cpp:406] temp2_drop <- temp2
I0710 19:59:35.721858  9991 net.cpp:367] temp2_drop -> temp2 (in-place)
I0710 19:59:35.721899  9991 net.cpp:122] Setting up temp2_drop
I0710 19:59:35.721905  9991 net.cpp:129] Top shape: 16 256 (4096)
I0710 19:59:35.721909  9991 net.cpp:137] Memory required for data: 610584320
I0710 19:59:35.721911  9991 layer_factory.hpp:77] Creating layer pool3/3x3_s2
I0710 19:59:35.721921  9991 net.cpp:84] Creating Layer pool3/3x3_s2
I0710 19:59:35.721927  9991 net.cpp:406] pool3/3x3_s2 <- inception_3b/output_inception_3b/output_0_split_1
I0710 19:59:35.721932  9991 net.cpp:380] pool3/3x3_s2 -> pool3/3x3_s2
I0710 19:59:35.721997  9991 net.cpp:122] Setting up pool3/3x3_s2
I0710 19:59:35.722004  9991 net.cpp:129] Top shape: 16 480 14 14 (1505280)
I0710 19:59:35.722007  9991 net.cpp:137] Memory required for data: 616605440
I0710 19:59:35.722010  9991 layer_factory.hpp:77] Creating layer pool3/3x3_s2_pool3/3x3_s2_0_split
I0710 19:59:35.722018  9991 net.cpp:84] Creating Layer pool3/3x3_s2_pool3/3x3_s2_0_split
I0710 19:59:35.722021  9991 net.cpp:406] pool3/3x3_s2_pool3/3x3_s2_0_split <- pool3/3x3_s2
I0710 19:59:35.722028  9991 net.cpp:380] pool3/3x3_s2_pool3/3x3_s2_0_split -> pool3/3x3_s2_pool3/3x3_s2_0_split_0
I0710 19:59:35.722035  9991 net.cpp:380] pool3/3x3_s2_pool3/3x3_s2_0_split -> pool3/3x3_s2_pool3/3x3_s2_0_split_1
I0710 19:59:35.722041  9991 net.cpp:380] pool3/3x3_s2_pool3/3x3_s2_0_split -> pool3/3x3_s2_pool3/3x3_s2_0_split_2
I0710 19:59:35.722049  9991 net.cpp:380] pool3/3x3_s2_pool3/3x3_s2_0_split -> pool3/3x3_s2_pool3/3x3_s2_0_split_3
I0710 19:59:35.722111  9991 net.cpp:122] Setting up pool3/3x3_s2_pool3/3x3_s2_0_split
I0710 19:59:35.722117  9991 net.cpp:129] Top shape: 16 480 14 14 (1505280)
I0710 19:59:35.722121  9991 net.cpp:129] Top shape: 16 480 14 14 (1505280)
I0710 19:59:35.722126  9991 net.cpp:129] Top shape: 16 480 14 14 (1505280)
I0710 19:59:35.722129  9991 net.cpp:129] Top shape: 16 480 14 14 (1505280)
I0710 19:59:35.722132  9991 net.cpp:137] Memory required for data: 640689920
I0710 19:59:35.722136  9991 layer_factory.hpp:77] Creating layer inception_4a/1x1
I0710 19:59:35.722157  9991 net.cpp:84] Creating Layer inception_4a/1x1
I0710 19:59:35.722162  9991 net.cpp:406] inception_4a/1x1 <- pool3/3x3_s2_pool3/3x3_s2_0_split_0
I0710 19:59:35.722170  9991 net.cpp:380] inception_4a/1x1 -> inception_4a/1x1
I0710 19:59:35.725008  9991 net.cpp:122] Setting up inception_4a/1x1
I0710 19:59:35.725023  9991 net.cpp:129] Top shape: 16 192 14 14 (602112)
I0710 19:59:35.725026  9991 net.cpp:137] Memory required for data: 643098368
I0710 19:59:35.725033  9991 layer_factory.hpp:77] Creating layer inception_4a/relu_1x1
I0710 19:59:35.725039  9991 net.cpp:84] Creating Layer inception_4a/relu_1x1
I0710 19:59:35.725044  9991 net.cpp:406] inception_4a/relu_1x1 <- inception_4a/1x1
I0710 19:59:35.725050  9991 net.cpp:367] inception_4a/relu_1x1 -> inception_4a/1x1 (in-place)
I0710 19:59:35.725519  9991 net.cpp:122] Setting up inception_4a/relu_1x1
I0710 19:59:35.725534  9991 net.cpp:129] Top shape: 16 192 14 14 (602112)
I0710 19:59:35.725549  9991 net.cpp:137] Memory required for data: 645506816
I0710 19:59:35.725553  9991 layer_factory.hpp:77] Creating layer inception_4a/3x3_reduce
I0710 19:59:35.725564  9991 net.cpp:84] Creating Layer inception_4a/3x3_reduce
I0710 19:59:35.725569  9991 net.cpp:406] inception_4a/3x3_reduce <- pool3/3x3_s2_pool3/3x3_s2_0_split_1
I0710 19:59:35.725574  9991 net.cpp:380] inception_4a/3x3_reduce -> inception_4a/3x3_reduce
I0710 19:59:35.727044  9991 net.cpp:122] Setting up inception_4a/3x3_reduce
I0710 19:59:35.727058  9991 net.cpp:129] Top shape: 16 96 14 14 (301056)
I0710 19:59:35.727073  9991 net.cpp:137] Memory required for data: 646711040
I0710 19:59:35.727079  9991 layer_factory.hpp:77] Creating layer inception_4a/relu_3x3_reduce
I0710 19:59:35.727088  9991 net.cpp:84] Creating Layer inception_4a/relu_3x3_reduce
I0710 19:59:35.727092  9991 net.cpp:406] inception_4a/relu_3x3_reduce <- inception_4a/3x3_reduce
I0710 19:59:35.727097  9991 net.cpp:367] inception_4a/relu_3x3_reduce -> inception_4a/3x3_reduce (in-place)
I0710 19:59:35.727560  9991 net.cpp:122] Setting up inception_4a/relu_3x3_reduce
I0710 19:59:35.727572  9991 net.cpp:129] Top shape: 16 96 14 14 (301056)
I0710 19:59:35.727586  9991 net.cpp:137] Memory required for data: 647915264
I0710 19:59:35.727591  9991 layer_factory.hpp:77] Creating layer inception_4a/3x3
I0710 19:59:35.727603  9991 net.cpp:84] Creating Layer inception_4a/3x3
I0710 19:59:35.727607  9991 net.cpp:406] inception_4a/3x3 <- inception_4a/3x3_reduce
I0710 19:59:35.727613  9991 net.cpp:380] inception_4a/3x3 -> inception_4a/3x3
I0710 19:59:35.730589  9991 net.cpp:122] Setting up inception_4a/3x3
I0710 19:59:35.730614  9991 net.cpp:129] Top shape: 16 208 14 14 (652288)
I0710 19:59:35.730618  9991 net.cpp:137] Memory required for data: 650524416
I0710 19:59:35.730624  9991 layer_factory.hpp:77] Creating layer inception_4a/relu_3x3
I0710 19:59:35.730633  9991 net.cpp:84] Creating Layer inception_4a/relu_3x3
I0710 19:59:35.730636  9991 net.cpp:406] inception_4a/relu_3x3 <- inception_4a/3x3
I0710 19:59:35.730641  9991 net.cpp:367] inception_4a/relu_3x3 -> inception_4a/3x3 (in-place)
I0710 19:59:35.730842  9991 net.cpp:122] Setting up inception_4a/relu_3x3
I0710 19:59:35.730854  9991 net.cpp:129] Top shape: 16 208 14 14 (652288)
I0710 19:59:35.730856  9991 net.cpp:137] Memory required for data: 653133568
I0710 19:59:35.730859  9991 layer_factory.hpp:77] Creating layer inception_4a/5x5_reduce
I0710 19:59:35.730870  9991 net.cpp:84] Creating Layer inception_4a/5x5_reduce
I0710 19:59:35.730875  9991 net.cpp:406] inception_4a/5x5_reduce <- pool3/3x3_s2_pool3/3x3_s2_0_split_2
I0710 19:59:35.730882  9991 net.cpp:380] inception_4a/5x5_reduce -> inception_4a/5x5_reduce
I0710 19:59:35.732254  9991 net.cpp:122] Setting up inception_4a/5x5_reduce
I0710 19:59:35.732282  9991 net.cpp:129] Top shape: 16 16 14 14 (50176)
I0710 19:59:35.732286  9991 net.cpp:137] Memory required for data: 653334272
I0710 19:59:35.732293  9991 layer_factory.hpp:77] Creating layer inception_4a/relu_5x5_reduce
I0710 19:59:35.732300  9991 net.cpp:84] Creating Layer inception_4a/relu_5x5_reduce
I0710 19:59:35.732303  9991 net.cpp:406] inception_4a/relu_5x5_reduce <- inception_4a/5x5_reduce
I0710 19:59:35.732311  9991 net.cpp:367] inception_4a/relu_5x5_reduce -> inception_4a/5x5_reduce (in-place)
I0710 19:59:35.732789  9991 net.cpp:122] Setting up inception_4a/relu_5x5_reduce
I0710 19:59:35.732815  9991 net.cpp:129] Top shape: 16 16 14 14 (50176)
I0710 19:59:35.732817  9991 net.cpp:137] Memory required for data: 653534976
I0710 19:59:35.732821  9991 layer_factory.hpp:77] Creating layer inception_4a/5x5
I0710 19:59:35.732832  9991 net.cpp:84] Creating Layer inception_4a/5x5
I0710 19:59:35.732836  9991 net.cpp:406] inception_4a/5x5 <- inception_4a/5x5_reduce
I0710 19:59:35.732844  9991 net.cpp:380] inception_4a/5x5 -> inception_4a/5x5
I0710 19:59:35.734071  9991 net.cpp:122] Setting up inception_4a/5x5
I0710 19:59:35.734094  9991 net.cpp:129] Top shape: 16 48 14 14 (150528)
I0710 19:59:35.734098  9991 net.cpp:137] Memory required for data: 654137088
I0710 19:59:35.734104  9991 layer_factory.hpp:77] Creating layer inception_4a/relu_5x5
I0710 19:59:35.734110  9991 net.cpp:84] Creating Layer inception_4a/relu_5x5
I0710 19:59:35.734113  9991 net.cpp:406] inception_4a/relu_5x5 <- inception_4a/5x5
I0710 19:59:35.734120  9991 net.cpp:367] inception_4a/relu_5x5 -> inception_4a/5x5 (in-place)
I0710 19:59:35.734582  9991 net.cpp:122] Setting up inception_4a/relu_5x5
I0710 19:59:35.734596  9991 net.cpp:129] Top shape: 16 48 14 14 (150528)
I0710 19:59:35.734609  9991 net.cpp:137] Memory required for data: 654739200
I0710 19:59:35.734614  9991 layer_factory.hpp:77] Creating layer inception_4a/pool
I0710 19:59:35.734622  9991 net.cpp:84] Creating Layer inception_4a/pool
I0710 19:59:35.734624  9991 net.cpp:406] inception_4a/pool <- pool3/3x3_s2_pool3/3x3_s2_0_split_3
I0710 19:59:35.734632  9991 net.cpp:380] inception_4a/pool -> inception_4a/pool
I0710 19:59:35.734853  9991 net.cpp:122] Setting up inception_4a/pool
I0710 19:59:35.734863  9991 net.cpp:129] Top shape: 16 480 14 14 (1505280)
I0710 19:59:35.734866  9991 net.cpp:137] Memory required for data: 660760320
I0710 19:59:35.734869  9991 layer_factory.hpp:77] Creating layer inception_4a/pool_proj
I0710 19:59:35.734880  9991 net.cpp:84] Creating Layer inception_4a/pool_proj
I0710 19:59:35.734884  9991 net.cpp:406] inception_4a/pool_proj <- inception_4a/pool
I0710 19:59:35.734891  9991 net.cpp:380] inception_4a/pool_proj -> inception_4a/pool_proj
I0710 19:59:35.736371  9991 net.cpp:122] Setting up inception_4a/pool_proj
I0710 19:59:35.736383  9991 net.cpp:129] Top shape: 16 64 14 14 (200704)
I0710 19:59:35.736398  9991 net.cpp:137] Memory required for data: 661563136
I0710 19:59:35.736404  9991 layer_factory.hpp:77] Creating layer inception_4a/relu_pool_proj
I0710 19:59:35.736413  9991 net.cpp:84] Creating Layer inception_4a/relu_pool_proj
I0710 19:59:35.736416  9991 net.cpp:406] inception_4a/relu_pool_proj <- inception_4a/pool_proj
I0710 19:59:35.736420  9991 net.cpp:367] inception_4a/relu_pool_proj -> inception_4a/pool_proj (in-place)
I0710 19:59:35.736879  9991 net.cpp:122] Setting up inception_4a/relu_pool_proj
I0710 19:59:35.736891  9991 net.cpp:129] Top shape: 16 64 14 14 (200704)
I0710 19:59:35.736907  9991 net.cpp:137] Memory required for data: 662365952
I0710 19:59:35.736909  9991 layer_factory.hpp:77] Creating layer inception_4a/output
I0710 19:59:35.736920  9991 net.cpp:84] Creating Layer inception_4a/output
I0710 19:59:35.736924  9991 net.cpp:406] inception_4a/output <- inception_4a/1x1
I0710 19:59:35.736928  9991 net.cpp:406] inception_4a/output <- inception_4a/3x3
I0710 19:59:35.736932  9991 net.cpp:406] inception_4a/output <- inception_4a/5x5
I0710 19:59:35.736946  9991 net.cpp:406] inception_4a/output <- inception_4a/pool_proj
I0710 19:59:35.736951  9991 net.cpp:380] inception_4a/output -> inception_4a/output
I0710 19:59:35.736989  9991 net.cpp:122] Setting up inception_4a/output
I0710 19:59:35.736995  9991 net.cpp:129] Top shape: 16 512 14 14 (1605632)
I0710 19:59:35.736999  9991 net.cpp:137] Memory required for data: 668788480
I0710 19:59:35.737001  9991 layer_factory.hpp:77] Creating layer loss1/ave_pool
I0710 19:59:35.737041  9991 net.cpp:84] Creating Layer loss1/ave_pool
I0710 19:59:35.737046  9991 net.cpp:406] loss1/ave_pool <- inception_4a/output
I0710 19:59:35.737064  9991 net.cpp:380] loss1/ave_pool -> loss1/ave_pool
I0710 19:59:35.737272  9991 net.cpp:122] Setting up loss1/ave_pool
I0710 19:59:35.737282  9991 net.cpp:129] Top shape: 16 512 4 4 (131072)
I0710 19:59:35.737285  9991 net.cpp:137] Memory required for data: 669312768
I0710 19:59:35.737289  9991 layer_factory.hpp:77] Creating layer loss1/conv
I0710 19:59:35.737300  9991 net.cpp:84] Creating Layer loss1/conv
I0710 19:59:35.737306  9991 net.cpp:406] loss1/conv <- loss1/ave_pool
I0710 19:59:35.737313  9991 net.cpp:380] loss1/conv -> loss1/conv
I0710 19:59:35.739264  9991 net.cpp:122] Setting up loss1/conv
I0710 19:59:35.739289  9991 net.cpp:129] Top shape: 16 128 4 4 (32768)
I0710 19:59:35.739293  9991 net.cpp:137] Memory required for data: 669443840
I0710 19:59:35.739300  9991 layer_factory.hpp:77] Creating layer loss1/relu_conv
I0710 19:59:35.739307  9991 net.cpp:84] Creating Layer loss1/relu_conv
I0710 19:59:35.739311  9991 net.cpp:406] loss1/relu_conv <- loss1/conv
I0710 19:59:35.739316  9991 net.cpp:367] loss1/relu_conv -> loss1/conv (in-place)
I0710 19:59:35.739775  9991 net.cpp:122] Setting up loss1/relu_conv
I0710 19:59:35.739800  9991 net.cpp:129] Top shape: 16 128 4 4 (32768)
I0710 19:59:35.739804  9991 net.cpp:137] Memory required for data: 669574912
I0710 19:59:35.739807  9991 layer_factory.hpp:77] Creating layer temp3
I0710 19:59:35.739819  9991 net.cpp:84] Creating Layer temp3
I0710 19:59:35.739822  9991 net.cpp:406] temp3 <- loss1/conv
I0710 19:59:35.739827  9991 net.cpp:380] temp3 -> temp3
I0710 19:59:35.747164  9991 net.cpp:122] Setting up temp3
I0710 19:59:35.747179  9991 net.cpp:129] Top shape: 16 512 (8192)
I0710 19:59:35.747193  9991 net.cpp:137] Memory required for data: 669607680
I0710 19:59:35.747200  9991 layer_factory.hpp:77] Creating layer temp3_relu
I0710 19:59:35.747205  9991 net.cpp:84] Creating Layer temp3_relu
I0710 19:59:35.747208  9991 net.cpp:406] temp3_relu <- temp3
I0710 19:59:35.747218  9991 net.cpp:367] temp3_relu -> temp3 (in-place)
I0710 19:59:35.747427  9991 net.cpp:122] Setting up temp3_relu
I0710 19:59:35.747437  9991 net.cpp:129] Top shape: 16 512 (8192)
I0710 19:59:35.747439  9991 net.cpp:137] Memory required for data: 669640448
I0710 19:59:35.747443  9991 layer_factory.hpp:77] Creating layer temp3_drop
I0710 19:59:35.747449  9991 net.cpp:84] Creating Layer temp3_drop
I0710 19:59:35.747452  9991 net.cpp:406] temp3_drop <- temp3
I0710 19:59:35.747459  9991 net.cpp:367] temp3_drop -> temp3 (in-place)
I0710 19:59:35.747488  9991 net.cpp:122] Setting up temp3_drop
I0710 19:59:35.747495  9991 net.cpp:129] Top shape: 16 512 (8192)
I0710 19:59:35.747498  9991 net.cpp:137] Memory required for data: 669673216
I0710 19:59:35.747508  9991 layer_factory.hpp:77] Creating layer temp
I0710 19:59:35.747514  9991 net.cpp:84] Creating Layer temp
I0710 19:59:35.747517  9991 net.cpp:406] temp <- temp1
I0710 19:59:35.747521  9991 net.cpp:406] temp <- temp2
I0710 19:59:35.747524  9991 net.cpp:406] temp <- temp3
I0710 19:59:35.747529  9991 net.cpp:380] temp -> temp
I0710 19:59:35.747558  9991 net.cpp:122] Setting up temp
I0710 19:59:35.747565  9991 net.cpp:129] Top shape: 16 1024 (16384)
I0710 19:59:35.747567  9991 net.cpp:137] Memory required for data: 669738752
I0710 19:59:35.747570  9991 layer_factory.hpp:77] Creating layer temp_cjy
I0710 19:59:35.747578  9991 net.cpp:84] Creating Layer temp_cjy
I0710 19:59:35.747581  9991 net.cpp:406] temp_cjy <- temp
I0710 19:59:35.747586  9991 net.cpp:380] temp_cjy -> temp_cjy
I0710 19:59:35.755164  9991 net.cpp:122] Setting up temp_cjy
I0710 19:59:35.755192  9991 net.cpp:129] Top shape: 16 1024 (16384)
I0710 19:59:35.755195  9991 net.cpp:137] Memory required for data: 669804288
I0710 19:59:35.755203  9991 layer_factory.hpp:77] Creating layer temp_cjy_relu
I0710 19:59:35.755209  9991 net.cpp:84] Creating Layer temp_cjy_relu
I0710 19:59:35.755213  9991 net.cpp:406] temp_cjy_relu <- temp_cjy
I0710 19:59:35.755218  9991 net.cpp:367] temp_cjy_relu -> temp_cjy (in-place)
I0710 19:59:35.755676  9991 net.cpp:122] Setting up temp_cjy_relu
I0710 19:59:35.755698  9991 net.cpp:129] Top shape: 16 1024 (16384)
I0710 19:59:35.755714  9991 net.cpp:137] Memory required for data: 669869824
I0710 19:59:35.755717  9991 layer_factory.hpp:77] Creating layer temp3_cjy_drop
I0710 19:59:35.755725  9991 net.cpp:84] Creating Layer temp3_cjy_drop
I0710 19:59:35.755729  9991 net.cpp:406] temp3_cjy_drop <- temp_cjy
I0710 19:59:35.755734  9991 net.cpp:367] temp3_cjy_drop -> temp_cjy (in-place)
I0710 19:59:35.755769  9991 net.cpp:122] Setting up temp3_cjy_drop
I0710 19:59:35.755779  9991 net.cpp:129] Top shape: 16 1024 (16384)
I0710 19:59:35.755782  9991 net.cpp:137] Memory required for data: 669935360
I0710 19:59:35.755785  9991 layer_factory.hpp:77] Creating layer loss1/classifier_cjy
I0710 19:59:35.755791  9991 net.cpp:84] Creating Layer loss1/classifier_cjy
I0710 19:59:35.755795  9991 net.cpp:406] loss1/classifier_cjy <- temp_cjy
I0710 19:59:35.755802  9991 net.cpp:380] loss1/classifier_cjy -> loss1/classifier_cjy
I0710 19:59:35.755980  9991 net.cpp:122] Setting up loss1/classifier_cjy
I0710 19:59:35.755990  9991 net.cpp:129] Top shape: 16 5 (80)
I0710 19:59:35.755992  9991 net.cpp:137] Memory required for data: 669935680
I0710 19:59:35.755998  9991 layer_factory.hpp:77] Creating layer loss1/loss
I0710 19:59:35.756005  9991 net.cpp:84] Creating Layer loss1/loss
I0710 19:59:35.756008  9991 net.cpp:406] loss1/loss <- loss1/classifier_cjy
I0710 19:59:35.756013  9991 net.cpp:406] loss1/loss <- label
I0710 19:59:35.756028  9991 net.cpp:380] loss1/loss -> (automatic)
…
I0710 19:59:35.757763  9991 upgrade_proto.cpp:63] Successfully upgraded file specified using deprecated V1LayerParameter
I0710 19:59:35.757810  9991 solver.cpp:190] Creating test net (#0) specified by test_net file: config/googlenet/val.prototxt
I0710 19:59:35.758327  9991 net.cpp:51] Initializing net from parameters: 
name: "GoogleNet"
state {
  phase: TEST
}
layer {
  name: "data"
  type: "Data"
  top: "data"
  top: "label"
  transform_param {
    mirror: false
    crop_size: 227
    mean_file: "mean/my_mean.binaryproto"
  }
  data_param {
    source: "dataset/val_lmdb"
    batch_size: 16
    backend: LMDB
  }
}
layer {
  name: "conv1/7x7_s2"
  type: "Convolution"
  bottom: "data"
  top: "conv1/7x7_s2"
  param {
    lr_mult: 1
    decay_mult: 1
  }
  param {
    lr_mult: 2
    decay_mult: 0
  }
  convolution_param {
    num_output: 64
    pad: 3
    kernel_size: 7
    stride: 2
    weight_filler {
      type: "xavier"
    }
    bias_filler {
      type: "constant"
      value: 0.2
    }
  }
}
layer {
  name: "conv1/relu_7x7"
  type: "ReLU"
  bottom: "conv1/7x7_s2"
  top: "conv1/7x7_s2"
}
layer {
  name: "pool1/3x3_s2"
  type: "Pooling"
  bottom: "conv1/7x7_s2"
  top: "pool1/3x3_s2"
  pooling_param {
    pool: MAX
    kernel_size: 3
    stride: 2
  }
}
layer {
  name: "pool1/norm1"
  type: "LRN"
  bottom: "pool1/3x3_s2"
  top: "pool1/norm1"
  lrn_param {
    local_size: 5
    alpha: 0.0001
    beta: 0.75
  }
}
layer {
  name: "conv2/3x3_reduce"
  type: "Convolution"
  bottom: "pool1/norm1"
  top: "conv2/3x3_reduce"
  param {
    lr_mult: 1
    decay_mult: 1
  }
  param {
    lr_mult: 2
    decay_mult: 0
  }
  convolution_param {
    num_output: 64
    kernel_size: 1
    weight_filler {
      type: "xavier"
    }
    bias_filler {
      type: "constant"
      value: 0.2
    }
  }
}
layer {
  name: "conv2/relu_3x3_reduce"
  type: "ReLU"
  bottom: "conv2/3x3_reduce"
  top: "conv2/3x3_reduce"
}
layer {
  name: "conv2/3x3"
  type: "Convolution"
  bottom: "conv2/3x3_reduce"
  top: "conv2/3x3"
  param {
    lr_mult: 1
    decay_mult: 1
  }
  param {
    lr_mult: 2
    decay_mult: 0
  }
  convolution_param {
    num_output: 192
    pad: 1
    kernel_size: 3
    weight_filler {
      type: "xavier"
    }
    bias_filler {
      type: "constant"
      value: 0.2
    }
  }
}
layer {
  name: "conv2/relu_3x3"
  type: "ReLU"
  bottom: "conv2/3x3"
  top: "conv2/3x3"
}
layer {
  name: "conv2/norm2"
  type: "LRN"
  bottom: "conv2/3x3"
  top: "conv2/norm2"
  lrn_param {
    local_size: 5
    alpha: 0.0001
    beta: 0.75
  }
}
layer {
  name: "pool2/3x3_s2"
  type: "Pooling"
  bottom: "conv2/norm2"
  top: "pool2/3x3_s2"
  pooling_param {
    pool: MAX
    kernel_size: 3
    stride: 2
  }
}
layer {
  name: "inception_3a/1x1"
  type: "Convolution"
  bottom: "pool2/3x3_s2"
  top: "inception_3a/1x1"
  param {
    lr_mult: 1
    decay_mult: 1
  }
  param {
    lr_mult: 2
    decay_mult: 0
  }
  convolution_param {
    num_output: 64
    kernel_size: 1
    weight_filler {
      type: "xavier"
    }
    bias_filler {
      type: "constant"
      value: 0.2
    }
  }
}
layer {
  name: "inception_3a/relu_1x1"
  type: "ReLU"
  bottom: "inception_3a/1x1"
  top: "inception_3a/1x1"
}
layer {
  name: "inception_3a/3x3_reduce"
  type: "Convolution"
  bottom: "pool2/3x3_s2"
  top: "inception_3a/3x3_reduce"
  param {
    lr_mult: 1
    decay_mult: 1
  }
  param {
    lr_mult: 2
    decay_mult: 0
  }
  convolution_param {
    num_output: 96
    kernel_size: 1
    weight_filler {
      type: "xavier"
    }
    bias_filler {
      type: "constant"
      value: 0.2
    }
  }
}
layer {
  name: "inception_3a/relu_3x3_reduce"
  type: "ReLU"
  bottom: "inception_3a/3x3_reduce"
  top: "inception_3a/3x3_reduce"
}
layer {
  name: "inception_3a/3x3"
  type: "Convolution"
  bottom: "inception_3a/3x3_reduce"
  top: "inception_3a/3x3"
  param {
    lr_mult: 1
    decay_mult: 1
  }
  param {
    lr_mult: 2
    decay_mult: 0
  }
  convolution_param {
    num_output: 128
    pad: 1
    kernel_size: 3
    weight_filler {
      type: "xavier"
    }
    bias_filler {
      type: "constant"
      value: 0.2
    }
  }
}
layer {
  name: "inception_3a/relu_3x3"
  type: "ReLU"
  bottom: "inception_3a/3x3"
  top: "inception_3a/3x3"
}
layer {
  name: "inception_3a/5x5_reduce"
  type: "Convolution"
  bottom: "pool2/3x3_s2"
  top: "inception_3a/5x5_reduce"
  param {
    lr_mult: 1
    decay_mult: 1
  }
  param {
    lr_mult: 2
    decay_mult: 0
  }
  convolution_param {
    num_output: 16
    kernel_size: 1
    weight_filler {
      type: "xavier"
    }
    bias_filler {
      type: "constant"
      value: 0.2
    }
  }
}
layer {
  name: "inception_3a/relu_5x5_reduce"
  type: "ReLU"
  bottom: "inception_3a/5x5_reduce"
  top: "inception_3a/5x5_reduce"
}
layer {
  name: "inception_3a/5x5"
  type: "Convolution"
  bottom: "inception_3a/5x5_reduce"
  top: "inception_3a/5x5"
  param {
    lr_mult: 1
    decay_mult: 1
  }
  param {
    lr_mult: 2
    decay_mult: 0
  }
  convolution_param {
    num_output: 32
    pad: 2
    kernel_size: 5
    weight_filler {
      type: "xavier"
    }
    bias_filler {
      type: "constant"
      value: 0.2
    }
  }
}
layer {
  name: "inception_3a/relu_5x5"
  type: "ReLU"
  bottom: "inception_3a/5x5"
  top: "inception_3a/5x5"
}
layer {
  name: "inception_3a/pool"
  type: "Pooling"
  bottom: "pool2/3x3_s2"
  top: "inception_3a/pool"
  pooling_param {
    pool: AVE
    kernel_size: 3
    stride: 1
    pad: 1
  }
}
layer {
  name: "inception_3a/pool_proj"
  type: "Convolution"
  bottom: "inception_3a/pool"
  top: "inception_3a/pool_proj"
  param {
    lr_mult: 1
    decay_mult: 1
  }
  param {
    lr_mult: 2
    decay_mult: 0
  }
  convolution_param {
    num_output: 32
    kernel_size: 1
    weight_filler {
      type: "xavier"
    }
    bias_filler {
      type: "constant"
      value: 0.2
    }
  }
}
layer {
  name: "inception_3a/relu_pool_proj"
  type: "ReLU"
  bottom: "inception_3a/pool_proj"
  top: "inception_3a/pool_proj"
}
layer {
  name: "inception_3a/output"
  type: "Concat"
  bottom: "inception_3a/1x1"
  bottom: "inception_3a/3x3"
  bottom: "inception_3a/5x5"
  bottom: "inception_3a/pool_proj"
  top: "inception_3a/output"
}
layer {
  name: "temp1"
  type: "InnerProduct"
  bottom: "inception_3a/output"
  top: "temp1"
  param {
    lr_mult: 10
    decay_mult: 1
  }
  param {
    lr_mult: 20
    decay_mult: 0
  }
  inner_product_param {
    num_output: 256
    weight_filler {
      type: "xavier"
    }
    bias_filler {
      type: "constant"
      value: 0.2
    }
  }
}
layer {
  name: "temp1_relu"
  type: "ReLU"
  bottom: "temp1"
  top: "temp1"
}
layer {
  name: "temp1_drop"
  type: "Dropout"
  bottom: "temp1"
  top: "temp1"
  dropout_param {
    dropout_ratio: 0.7
  }
}
layer {
  name: "inception_3b/1x1"
  type: "Convolution"
  bottom: "inception_3a/output"
  top: "inception_3b/1x1"
  param {
    lr_mult: 1
    decay_mult: 1
  }
  param {
    lr_mult: 2
    decay_mult: 0
  }
  convolution_param {
    num_output: 128
    kernel_size: 1
    weight_filler {
      type: "xavier"
    }
    bias_filler {
      type: "constant"
      value: 0.2
    }
  }
}
layer {
  name: "inception_3b/relu_1x1"
  type: "ReLU"
  bottom: "inception_3b/1x1"
  top: "inception_3b/1x1"
}
layer {
  name: "inception_3b/3x3_reduce"
  type: "Convolution"
  bottom: "inception_3a/output"
  top: "inception_3b/3x3_reduce"
  param {
    lr_mult: 1
    decay_mult: 1
  }
  param {
    lr_mult: 2
    decay_mult: 0
  }
  convolution_param {
    num_output: 128
    kernel_size: 1
    weight_filler {
      type: "xavier"
    }
    bias_filler {
      type: "constant"
      value: 0.2
    }
  }
}
layer {
  name: "inception_3b/relu_3x3_reduce"
  type: "ReLU"
  bottom: "inception_3b/3x3_reduce"
  top: "inception_3b/3x3_reduce"
}
layer {
  name: "inception_3b/3x3"
  type: "Convolution"
  bottom: "inception_3b/3x3_reduce"
  top: "inception_3b/3x3"
  param {
    lr_mult: 1
    decay_mult: 1
  }
  param {
    lr_mult: 2
    decay_mult: 0
  }
  convolution_param {
    num_output: 192
    pad: 1
    kernel_size: 3
    weight_filler {
      type: "xavier"
    }
    bias_filler {
      type: "constant"
      value: 0.2
    }
  }
}
layer {
  name: "inception_3b/relu_3x3"
  type: "ReLU"
  bottom: "inception_3b/3x3"
  top: "inception_3b/3x3"
}
layer {
  name: "inception_3b/5x5_reduce"
  type: "Convolution"
  bottom: "inception_3a/output"
  top: "inception_3b/5x5_reduce"
  param {
    lr_mult: 1
    decay_mult: 1
  }
  param {
    lr_mult: 2
    decay_mult: 0
  }
  convolution_param {
    num_output: 32
    kernel_size: 1
    weight_filler {
      type: "xavier"
    }
    bias_filler {
      type: "constant"
      value: 0.2
    }
  }
}
layer {
  name: "inception_3b/relu_5x5_reduce"
  type: "ReLU"
  bottom: "inception_3b/5x5_reduce"
  top: "inception_3b/5x5_reduce"
}
layer {
  name: "inception_3b/5x5"
  type: "Convolution"
  bottom: "inception_3b/5x5_reduce"
  top: "inception_3b/5x5"
  param {
    lr_mult: 1
    decay_mult: 1
  }
  param {
    lr_mult: 2
    decay_mult: 0
  }
  convolution_param {
    num_output: 96
    pad: 2
    kernel_size: 5
    weight_filler {
      type: "xavier"
    }
    bias_filler {
      type: "constant"
      value: 0.2
    }
  }
}
layer {
  name: "inception_3b/relu_5x5"
  type: "ReLU"
  bottom: "inception_3b/5x5"
  top: "inception_3b/5x5"
}
layer {
  name: "inception_3b/pool"
  type: "Pooling"
  bottom: "inception_3a/output"
  top: "inception_3b/pool"
  pooling_param {
    pool: AVE
    kernel_size: 3
    stride: 1
    pad: 1
  }
}
layer {
  name: "inception_3b/pool_proj"
  type: "Convolution"
  bottom: "inception_3b/pool"
  top: "inception_3b/pool_proj"
  param {
    lr_mult: 1
    decay_mult: 1
  }
  param {
    lr_mult: 2
    decay_mult: 0
  }
  convolution_param {
    num_output: 64
    kernel_size: 1
    weight_filler {
      type: "xavier"
    }
    bias_filler {
      type: "constant"
      value: 0.2
    }
  }
}
layer {
  name: "inception_3b/relu_pool_proj"
  type: "ReLU"
  bottom: "inception_3b/pool_proj"
  top: "inception_3b/pool_proj"
}
layer {
  name: "inception_3b/output"
  type: "Concat"
  bottom: "inception_3b/1x1"
  bottom: "inception_3b/3x3"
  bottom: "inception_3b/5x5"
  bottom: "inception_3b/pool_proj"
  top: "inception_3b/output"
}
layer {
  name: "temp2"
  type: "InnerProduct"
  bottom: "inception_3b/output"
  top: "temp2"
  param {
    lr_mult: 10
    decay_mult: 1
  }
  param {
    lr_mult: 20
    decay_mult: 0
  }
  inner_product_param {
    num_output: 256
    weight_filler {
      type: "xavier"
    }
    bias_filler {
      type: "constant"
      value: 0.2
    }
  }
}
layer {
  name: "temp2_relu"
  type: "ReLU"
  bottom: "temp2"
  top: "temp2"
}
layer {
  name: "temp2_drop"
  type: "Dropout"
  bottom: "temp2"
  top: "temp2"
  dropout_param {
    dropout_ratio: 0.7
  }
}
layer {
  name: "pool3/3x3_s2"
  type: "Pooling"
  bottom: "inception_3b/output"
  top: "pool3/3x3_s2"
  pooling_param {
    pool: MAX
    kernel_size: 3
    stride: 2
  }
}
layer {
  name: "inception_4a/1x1"
  type: "Convolution"
  bottom: "pool3/3x3_s2"
  top: "inception_4a/1x1"
  param {
    lr_mult: 1
    decay_mult: 1
  }
  param {
    lr_mult: 2
    decay_mult: 0
  }
  convolution_param {
    num_output: 192
    kernel_size: 1
    weight_filler {
      type: "xavier"
    }
    bias_filler {
      type: "constant"
      value: 0.2
    }
  }
}
layer {
  name: "inception_4a/relu_1x1"
  type: "ReLU"
  bottom: "inception_4a/1x1"
  top: "inception_4a/1x1"
}
layer {
  name: "inception_4a/3x3_reduce"
  type: "Convolution"
  bottom: "pool3/3x3_s2"
  top: "inception_4a/3x3_reduce"
  param {
    lr_mult: 1
    decay_mult: 1
  }
  param {
    lr_mult: 2
    decay_mult: 0
  }
  convolution_param {
    num_output: 96
    kernel_size: 1
    weight_filler {
      type: "xavier"
    }
    bias_filler {
      type: "constant"
      value: 0.2
    }
  }
}
layer {
  name: "inception_4a/relu_3x3_reduce"
  type: "ReLU"
  bottom: "inception_4a/3x3_reduce"
  top: "inception_4a/3x3_reduce"
}
layer {
  name: "inception_4a/3x3"
  type: "Convolution"
  bottom: "inception_4a/3x3_reduce"
  top: "inception_4a/3x3"
  param {
    lr_mult: 1
    decay_mult: 1
  }
  param {
    lr_mult: 2
    decay_mult: 0
  }
  convolution_param {
    num_output: 208
    pad: 1
    kernel_size: 3
    weight_filler {
      type: "xavier"
    }
    bias_filler {
      type: "constant"
      value: 0.2
    }
  }
}
layer {
  name: "inception_4a/relu_3x3"
  type: "ReLU"
  bottom: "inception_4a/3x3"
  top: "inception_4a/3x3"
}
layer {
  name: "inception_4a/5x5_reduce"
  type: "Convolution"
  bottom: "pool3/3x3_s2"
  top: "inception_4a/5x5_reduce"
  param {
    lr_mult: 1
    decay_mult: 1
  }
  param {
    lr_mult: 2
    decay_mult: 0
  }
  convolution_param {
    num_output: 16
    kernel_size: 1
    weight_filler {
      type: "xavier"
    }
    bias_filler {
      type: "constant"
      value: 0.2
    }
  }
}
layer {
  name: "inception_4a/relu_5x5_reduce"
  type: "ReLU"
  bottom: "inception_4a/5x5_reduce"
  top: "inception_4a/5x5_reduce"
}
layer {
  name: "inception_4a/5x5"
  type: "Convolution"
  bottom: "inception_4a/5x5_reduce"
  top: "inception_4a/5x5"
  param {
    lr_mult: 1
    decay_mult: 1
  }
  param {
    lr_mult: 2
    decay_mult: 0
  }
  convolution_param {
    num_output: 48
    pad: 2
    kernel_size: 5
    weight_filler {
      type: "xavier"
    }
    bias_filler {
      type: "constant"
      value: 0.2
    }
  }
}
layer {
  name: "inception_4a/relu_5x5"
  type: "ReLU"
  bottom: "inception_4a/5x5"
  top: "inception_4a/5x5"
}
layer {
  name: "inception_4a/pool"
  type: "Pooling"
  bottom: "pool3/3x3_s2"
  top: "inception_4a/pool"
  pooling_param {
    pool: AVE
    kernel_size: 3
    stride: 1
    pad: 1
  }
}
layer {
  name: "inception_4a/pool_proj"
  type: "Convolution"
  bottom: "inception_4a/pool"
  top: "inception_4a/pool_proj"
  param {
    lr_mult: 1
    decay_mult: 1
  }
  param {
    lr_mult: 2
    decay_mult: 0
  }
  convolution_param {
    num_output: 64
    kernel_size: 1
    weight_filler {
      type: "xavier"
    }
    bias_filler {
      type: "constant"
      value: 0.2
    }
  }
}
layer {
  name: "inception_4a/relu_pool_proj"
  type: "ReLU"
  bottom: "inception_4a/pool_proj"
  top: "inception_4a/pool_proj"
}
layer {
  name: "inception_4a/output"
  type: "Concat"
  bottom: "inception_4a/1x1"
  bottom: "inception_4a/3x3"
  bottom: "inception_4a/5x5"
  bottom: "inception_4a/pool_proj"
  top: "inception_4a/output"
}
layer {
  name: "loss1/ave_pool"
  type: "Pooling"
  bottom: "inception_4a/output"
  top: "loss1/ave_pool"
  pooling_param {
    pool: AVE
    kernel_size: 5
    stride: 3
  }
}
layer {
  name: "loss1/conv"
  type: "Convolution"
  bottom: "loss1/ave_pool"
  top: "loss1/conv"
  param {
    lr_mult: 1
    decay_mult: 1
  }
  param {
    lr_mult: 2
    decay_mult: 0
  }
  convolution_param {
    num_output: 128
    kernel_size: 1
    weight_filler {
      type: "xavier"
    }
    bias_filler {
      type: "constant"
      value: 0.2
    }
  }
}
layer {
  name: "loss1/relu_conv"
  type: "ReLU"
  bottom: "loss1/conv"
  top: "loss1/conv"
}
layer {
  name: "temp3"
  type: "InnerProduct"
  bottom: "loss1/conv"
  top: "temp3"
  param {
    lr_mult: 10
    decay_mult: 1
  }
  param {
    lr_mult: 20
    decay_mult: 0
  }
  inner_product_param {
    num_output: 512
    weight_filler {
      type: "xavier"
    }
    bias_filler {
      type: "constant"
      value: 0.2
    }
  }
}
layer {
  name: "temp3_relu"
  type: "ReLU"
  bottom: "temp3"
  top: "temp3"
}
layer {
  name: "temp3_drop"
  type: "Dropout"
  bottom: "temp3"
  top: "temp3"
  dropout_param {
    dropout_ratio: 0.7
  }
}
layer {
  name: "temp"
  type: "Concat"
  bottom: "temp1"
  bottom: "temp2"
  bottom: "temp3"
  top: "temp"
}
layer {
  name: "temp_cjy"
  type: "InnerProduct"
  bottom: "temp"
  top: "temp_cjy"
  param {
    lr_mult: 10
    decay_mult: 1
  }
  param {
    lr_mult: 20
    decay_mult: 0
  }
  inner_product_param {
    num_output: 1024
    weight_filler {
      type: "xavier"
    }
    bias_filler {
      type: "constant"
      value: 0.2
    }
  }
}
layer {
  name: "temp_cjy_relu"
  type: "ReLU"
  bottom: "temp_cjy"
  top: "temp_cjy"
}
layer {
  name: "temp3_cjy_drop"
  type: "Dropout"
  bottom: "temp_cjy"
  top: "temp_cjy"
  dropout_param {
    dropout_ratio: 0.7
  }
}
layer {
  name: "loss1/classifier_cjy"
  type: "InnerProduct"
  bottom: "temp_cjy"
  top: "loss1/classifier_cjy"
  param {
    lr_mult: 10
    decay_mult: 1
  }
  param {
    lr_mult: 20
    decay_mult: 0
  }
  inner_product_param {
    num_output: 5
    weight_filler {
      type: "xavier"
    }
    bias_filler {
      type: "constant"
      value: 0
    }
  }
}
layer {
  name: "loss1/loss"
  type: "SoftmaxWithLoss"
  bottom: "loss1/classifier_cjy"
  bottom: "label"
}
layer {
  name: "loss1/top-1"
  type: "Accuracy"
  bottom: "loss1/classifier_cjy"
  bottom: "label"
  top: "loss1/top-1"
}
I0710 19:59:35.758628  9991 layer_factory.hpp:77] Creating layer data
I0710 19:59:35.758694  9991 db_lmdb.cpp:35] Opened lmdb dataset/val_lmdb
I0710 19:59:35.758710  9991 net.cpp:84] Creating Layer data
I0710 19:59:35.758716  9991 net.cpp:380] data -> data
I0710 19:59:35.758724  9991 net.cpp:380] data -> label
I0710 19:59:35.758731  9991 data_transformer.cpp:25] Loading mean file from: mean/my_mean.binaryproto
I0710 19:59:35.760380  9991 data_layer.cpp:45] output data size: 16,3,227,227
I0710 19:59:35.785796  9991 net.cpp:122] Setting up data
I0710 19:59:35.785842  9991 net.cpp:129] Top shape: 16 3 227 227 (2473392)
I0710 19:59:35.785848  9991 net.cpp:129] Top shape: 16 (16)
I0710 19:59:35.785851  9991 net.cpp:137] Memory required for data: 9893632
I0710 19:59:35.785859  9991 layer_factory.hpp:77] Creating layer label_data_1_split
I0710 19:59:35.785878  9991 net.cpp:84] Creating Layer label_data_1_split
I0710 19:59:35.785883  9991 net.cpp:406] label_data_1_split <- label
I0710 19:59:35.785893  9991 net.cpp:380] label_data_1_split -> label_data_1_split_0
I0710 19:59:35.785907  9991 net.cpp:380] label_data_1_split -> label_data_1_split_1
I0710 19:59:35.785980  9991 net.cpp:122] Setting up label_data_1_split
I0710 19:59:35.785989  9991 net.cpp:129] Top shape: 16 (16)
I0710 19:59:35.785992  9991 net.cpp:129] Top shape: 16 (16)
I0710 19:59:35.785995  9991 net.cpp:137] Memory required for data: 9893760
I0710 19:59:35.785998  9991 layer_factory.hpp:77] Creating layer conv1/7x7_s2
I0710 19:59:35.786013  9991 net.cpp:84] Creating Layer conv1/7x7_s2
I0710 19:59:35.786017  9991 net.cpp:406] conv1/7x7_s2 <- data
I0710 19:59:35.786025  9991 net.cpp:380] conv1/7x7_s2 -> conv1/7x7_s2
I0710 19:59:35.788275  9991 net.cpp:122] Setting up conv1/7x7_s2
I0710 19:59:35.788300  9991 net.cpp:129] Top shape: 16 64 114 114 (13307904)
I0710 19:59:35.788305  9991 net.cpp:137] Memory required for data: 63125376
I0710 19:59:35.788316  9991 layer_factory.hpp:77] Creating layer conv1/relu_7x7
I0710 19:59:35.788329  9991 net.cpp:84] Creating Layer conv1/relu_7x7
I0710 19:59:35.788333  9991 net.cpp:406] conv1/relu_7x7 <- conv1/7x7_s2
I0710 19:59:35.788338  9991 net.cpp:367] conv1/relu_7x7 -> conv1/7x7_s2 (in-place)
I0710 19:59:35.788841  9991 net.cpp:122] Setting up conv1/relu_7x7
I0710 19:59:35.788853  9991 net.cpp:129] Top shape: 16 64 114 114 (13307904)
I0710 19:59:35.788867  9991 net.cpp:137] Memory required for data: 116356992
I0710 19:59:35.788888  9991 layer_factory.hpp:77] Creating layer pool1/3x3_s2
I0710 19:59:35.788906  9991 net.cpp:84] Creating Layer pool1/3x3_s2
I0710 19:59:35.788910  9991 net.cpp:406] pool1/3x3_s2 <- conv1/7x7_s2
I0710 19:59:35.788916  9991 net.cpp:380] pool1/3x3_s2 -> pool1/3x3_s2
I0710 19:59:35.789155  9991 net.cpp:122] Setting up pool1/3x3_s2
I0710 19:59:35.789165  9991 net.cpp:129] Top shape: 16 64 57 57 (3326976)
I0710 19:59:35.789170  9991 net.cpp:137] Memory required for data: 129664896
I0710 19:59:35.789173  9991 layer_factory.hpp:77] Creating layer pool1/norm1
I0710 19:59:35.789182  9991 net.cpp:84] Creating Layer pool1/norm1
I0710 19:59:35.789206  9991 net.cpp:406] pool1/norm1 <- pool1/3x3_s2
I0710 19:59:35.789213  9991 net.cpp:380] pool1/norm1 -> pool1/norm1
I0710 19:59:35.789444  9991 net.cpp:122] Setting up pool1/norm1
I0710 19:59:35.789479  9991 net.cpp:129] Top shape: 16 64 57 57 (3326976)
I0710 19:59:35.789482  9991 net.cpp:137] Memory required for data: 142972800
I0710 19:59:35.789486  9991 layer_factory.hpp:77] Creating layer conv2/3x3_reduce
I0710 19:59:35.789497  9991 net.cpp:84] Creating Layer conv2/3x3_reduce
I0710 19:59:35.789511  9991 net.cpp:406] conv2/3x3_reduce <- pool1/norm1
I0710 19:59:35.789518  9991 net.cpp:380] conv2/3x3_reduce -> conv2/3x3_reduce
I0710 19:59:35.793242  9991 net.cpp:122] Setting up conv2/3x3_reduce
I0710 19:59:35.793257  9991 net.cpp:129] Top shape: 16 64 57 57 (3326976)
I0710 19:59:35.793272  9991 net.cpp:137] Memory required for data: 156280704
I0710 19:59:35.793280  9991 layer_factory.hpp:77] Creating layer conv2/relu_3x3_reduce
I0710 19:59:35.793287  9991 net.cpp:84] Creating Layer conv2/relu_3x3_reduce
I0710 19:59:35.793290  9991 net.cpp:406] conv2/relu_3x3_reduce <- conv2/3x3_reduce
I0710 19:59:35.793296  9991 net.cpp:367] conv2/relu_3x3_reduce -> conv2/3x3_reduce (in-place)
I0710 19:59:35.793505  9991 net.cpp:122] Setting up conv2/relu_3x3_reduce
I0710 19:59:35.793517  9991 net.cpp:129] Top shape: 16 64 57 57 (3326976)
I0710 19:59:35.793520  9991 net.cpp:137] Memory required for data: 169588608
I0710 19:59:35.793524  9991 layer_factory.hpp:77] Creating layer conv2/3x3
I0710 19:59:35.793535  9991 net.cpp:84] Creating Layer conv2/3x3
I0710 19:59:35.793539  9991 net.cpp:406] conv2/3x3 <- conv2/3x3_reduce
I0710 19:59:35.793545  9991 net.cpp:380] conv2/3x3 -> conv2/3x3
I0710 19:59:35.796097  9991 net.cpp:122] Setting up conv2/3x3
I0710 19:59:35.796123  9991 net.cpp:129] Top shape: 16 192 57 57 (9980928)
I0710 19:59:35.796128  9991 net.cpp:137] Memory required for data: 209512320
I0710 19:59:35.796136  9991 layer_factory.hpp:77] Creating layer conv2/relu_3x3
I0710 19:59:35.796144  9991 net.cpp:84] Creating Layer conv2/relu_3x3
I0710 19:59:35.796146  9991 net.cpp:406] conv2/relu_3x3 <- conv2/3x3
I0710 19:59:35.796152  9991 net.cpp:367] conv2/relu_3x3 -> conv2/3x3 (in-place)
I0710 19:59:35.796617  9991 net.cpp:122] Setting up conv2/relu_3x3
I0710 19:59:35.796639  9991 net.cpp:129] Top shape: 16 192 57 57 (9980928)
I0710 19:59:35.796643  9991 net.cpp:137] Memory required for data: 249436032
I0710 19:59:35.796646  9991 layer_factory.hpp:77] Creating layer conv2/norm2
I0710 19:59:35.796653  9991 net.cpp:84] Creating Layer conv2/norm2
I0710 19:59:35.796658  9991 net.cpp:406] conv2/norm2 <- conv2/3x3
I0710 19:59:35.796663  9991 net.cpp:380] conv2/norm2 -> conv2/norm2
I0710 19:59:35.796896  9991 net.cpp:122] Setting up conv2/norm2
I0710 19:59:35.796907  9991 net.cpp:129] Top shape: 16 192 57 57 (9980928)
I0710 19:59:35.796911  9991 net.cpp:137] Memory required for data: 289359744
I0710 19:59:35.796913  9991 layer_factory.hpp:77] Creating layer pool2/3x3_s2
I0710 19:59:35.796919  9991 net.cpp:84] Creating Layer pool2/3x3_s2
I0710 19:59:35.796923  9991 net.cpp:406] pool2/3x3_s2 <- conv2/norm2
I0710 19:59:35.796928  9991 net.cpp:380] pool2/3x3_s2 -> pool2/3x3_s2
I0710 19:59:35.796970  9991 net.cpp:122] Setting up pool2/3x3_s2
I0710 19:59:35.796977  9991 net.cpp:129] Top shape: 16 192 28 28 (2408448)
I0710 19:59:35.796980  9991 net.cpp:137] Memory required for data: 298993536
I0710 19:59:35.796999  9991 layer_factory.hpp:77] Creating layer pool2/3x3_s2_pool2/3x3_s2_0_split
I0710 19:59:35.797006  9991 net.cpp:84] Creating Layer pool2/3x3_s2_pool2/3x3_s2_0_split
I0710 19:59:35.797010  9991 net.cpp:406] pool2/3x3_s2_pool2/3x3_s2_0_split <- pool2/3x3_s2
I0710 19:59:35.797016  9991 net.cpp:380] pool2/3x3_s2_pool2/3x3_s2_0_split -> pool2/3x3_s2_pool2/3x3_s2_0_split_0
I0710 19:59:35.797024  9991 net.cpp:380] pool2/3x3_s2_pool2/3x3_s2_0_split -> pool2/3x3_s2_pool2/3x3_s2_0_split_1
I0710 19:59:35.797030  9991 net.cpp:380] pool2/3x3_s2_pool2/3x3_s2_0_split -> pool2/3x3_s2_pool2/3x3_s2_0_split_2
I0710 19:59:35.797036  9991 net.cpp:380] pool2/3x3_s2_pool2/3x3_s2_0_split -> pool2/3x3_s2_pool2/3x3_s2_0_split_3
I0710 19:59:35.797103  9991 net.cpp:122] Setting up pool2/3x3_s2_pool2/3x3_s2_0_split
I0710 19:59:35.797111  9991 net.cpp:129] Top shape: 16 192 28 28 (2408448)
I0710 19:59:35.797114  9991 net.cpp:129] Top shape: 16 192 28 28 (2408448)
I0710 19:59:35.797118  9991 net.cpp:129] Top shape: 16 192 28 28 (2408448)
I0710 19:59:35.797122  9991 net.cpp:129] Top shape: 16 192 28 28 (2408448)
I0710 19:59:35.797124  9991 net.cpp:137] Memory required for data: 337528704
I0710 19:59:35.797127  9991 layer_factory.hpp:77] Creating layer inception_3a/1x1
I0710 19:59:35.797137  9991 net.cpp:84] Creating Layer inception_3a/1x1
I0710 19:59:35.797140  9991 net.cpp:406] inception_3a/1x1 <- pool2/3x3_s2_pool2/3x3_s2_0_split_0
I0710 19:59:35.797147  9991 net.cpp:380] inception_3a/1x1 -> inception_3a/1x1
I0710 19:59:35.798560  9991 net.cpp:122] Setting up inception_3a/1x1
I0710 19:59:35.798586  9991 net.cpp:129] Top shape: 16 64 28 28 (802816)
I0710 19:59:35.798590  9991 net.cpp:137] Memory required for data: 340739968
I0710 19:59:35.798597  9991 layer_factory.hpp:77] Creating layer inception_3a/relu_1x1
I0710 19:59:35.798604  9991 net.cpp:84] Creating Layer inception_3a/relu_1x1
I0710 19:59:35.798607  9991 net.cpp:406] inception_3a/relu_1x1 <- inception_3a/1x1
I0710 19:59:35.798614  9991 net.cpp:367] inception_3a/relu_1x1 -> inception_3a/1x1 (in-place)
I0710 19:59:35.799067  9991 net.cpp:122] Setting up inception_3a/relu_1x1
I0710 19:59:35.799079  9991 net.cpp:129] Top shape: 16 64 28 28 (802816)
I0710 19:59:35.799093  9991 net.cpp:137] Memory required for data: 343951232
I0710 19:59:35.799096  9991 layer_factory.hpp:77] Creating layer inception_3a/3x3_reduce
I0710 19:59:35.799106  9991 net.cpp:84] Creating Layer inception_3a/3x3_reduce
I0710 19:59:35.799110  9991 net.cpp:406] inception_3a/3x3_reduce <- pool2/3x3_s2_pool2/3x3_s2_0_split_1
I0710 19:59:35.799118  9991 net.cpp:380] inception_3a/3x3_reduce -> inception_3a/3x3_reduce
I0710 19:59:35.800993  9991 net.cpp:122] Setting up inception_3a/3x3_reduce
I0710 19:59:35.801018  9991 net.cpp:129] Top shape: 16 96 28 28 (1204224)
I0710 19:59:35.801023  9991 net.cpp:137] Memory required for data: 348768128
I0710 19:59:35.801031  9991 layer_factory.hpp:77] Creating layer inception_3a/relu_3x3_reduce
I0710 19:59:35.801040  9991 net.cpp:84] Creating Layer inception_3a/relu_3x3_reduce
I0710 19:59:35.801044  9991 net.cpp:406] inception_3a/relu_3x3_reduce <- inception_3a/3x3_reduce
I0710 19:59:35.801050  9991 net.cpp:367] inception_3a/relu_3x3_reduce -> inception_3a/3x3_reduce (in-place)
I0710 19:59:35.801592  9991 net.cpp:122] Setting up inception_3a/relu_3x3_reduce
I0710 19:59:35.801620  9991 net.cpp:129] Top shape: 16 96 28 28 (1204224)
I0710 19:59:35.801625  9991 net.cpp:137] Memory required for data: 353585024
I0710 19:59:35.801627  9991 layer_factory.hpp:77] Creating layer inception_3a/3x3
I0710 19:59:35.801637  9991 net.cpp:84] Creating Layer inception_3a/3x3
I0710 19:59:35.801641  9991 net.cpp:406] inception_3a/3x3 <- inception_3a/3x3_reduce
I0710 19:59:35.801659  9991 net.cpp:380] inception_3a/3x3 -> inception_3a/3x3
I0710 19:59:35.806955  9991 net.cpp:122] Setting up inception_3a/3x3
I0710 19:59:35.806980  9991 net.cpp:129] Top shape: 16 128 28 28 (1605632)
I0710 19:59:35.806983  9991 net.cpp:137] Memory required for data: 360007552
I0710 19:59:35.806989  9991 layer_factory.hpp:77] Creating layer inception_3a/relu_3x3
I0710 19:59:35.807008  9991 net.cpp:84] Creating Layer inception_3a/relu_3x3
I0710 19:59:35.807023  9991 net.cpp:406] inception_3a/relu_3x3 <- inception_3a/3x3
I0710 19:59:35.807029  9991 net.cpp:367] inception_3a/relu_3x3 -> inception_3a/3x3 (in-place)
I0710 19:59:35.807224  9991 net.cpp:122] Setting up inception_3a/relu_3x3
I0710 19:59:35.807235  9991 net.cpp:129] Top shape: 16 128 28 28 (1605632)
I0710 19:59:35.807237  9991 net.cpp:137] Memory required for data: 366430080
I0710 19:59:35.807240  9991 layer_factory.hpp:77] Creating layer inception_3a/5x5_reduce
I0710 19:59:35.807250  9991 net.cpp:84] Creating Layer inception_3a/5x5_reduce
I0710 19:59:35.807255  9991 net.cpp:406] inception_3a/5x5_reduce <- pool2/3x3_s2_pool2/3x3_s2_0_split_2
I0710 19:59:35.807261  9991 net.cpp:380] inception_3a/5x5_reduce -> inception_3a/5x5_reduce
I0710 19:59:35.808789  9991 net.cpp:122] Setting up inception_3a/5x5_reduce
I0710 19:59:35.808814  9991 net.cpp:129] Top shape: 16 16 28 28 (200704)
I0710 19:59:35.808816  9991 net.cpp:137] Memory required for data: 367232896
I0710 19:59:35.808822  9991 layer_factory.hpp:77] Creating layer inception_3a/relu_5x5_reduce
I0710 19:59:35.808830  9991 net.cpp:84] Creating Layer inception_3a/relu_5x5_reduce
I0710 19:59:35.808832  9991 net.cpp:406] inception_3a/relu_5x5_reduce <- inception_3a/5x5_reduce
I0710 19:59:35.808837  9991 net.cpp:367] inception_3a/relu_5x5_reduce -> inception_3a/5x5_reduce (in-place)
I0710 19:59:35.809307  9991 net.cpp:122] Setting up inception_3a/relu_5x5_reduce
I0710 19:59:35.809319  9991 net.cpp:129] Top shape: 16 16 28 28 (200704)
I0710 19:59:35.809334  9991 net.cpp:137] Memory required for data: 368035712
I0710 19:59:35.809336  9991 layer_factory.hpp:77] Creating layer inception_3a/5x5
I0710 19:59:35.809346  9991 net.cpp:84] Creating Layer inception_3a/5x5
I0710 19:59:35.809350  9991 net.cpp:406] inception_3a/5x5 <- inception_3a/5x5_reduce
I0710 19:59:35.809356  9991 net.cpp:380] inception_3a/5x5 -> inception_3a/5x5
I0710 19:59:35.810782  9991 net.cpp:122] Setting up inception_3a/5x5
I0710 19:59:35.810806  9991 net.cpp:129] Top shape: 16 32 28 28 (401408)
I0710 19:59:35.810811  9991 net.cpp:137] Memory required for data: 369641344
I0710 19:59:35.810817  9991 layer_factory.hpp:77] Creating layer inception_3a/relu_5x5
I0710 19:59:35.810824  9991 net.cpp:84] Creating Layer inception_3a/relu_5x5
I0710 19:59:35.810828  9991 net.cpp:406] inception_3a/relu_5x5 <- inception_3a/5x5
I0710 19:59:35.810832  9991 net.cpp:367] inception_3a/relu_5x5 -> inception_3a/5x5 (in-place)
I0710 19:59:35.811319  9991 net.cpp:122] Setting up inception_3a/relu_5x5
I0710 19:59:35.811331  9991 net.cpp:129] Top shape: 16 32 28 28 (401408)
I0710 19:59:35.811344  9991 net.cpp:137] Memory required for data: 371246976
I0710 19:59:35.811347  9991 layer_factory.hpp:77] Creating layer inception_3a/pool
I0710 19:59:35.811357  9991 net.cpp:84] Creating Layer inception_3a/pool
I0710 19:59:35.811360  9991 net.cpp:406] inception_3a/pool <- pool2/3x3_s2_pool2/3x3_s2_0_split_3
I0710 19:59:35.811365  9991 net.cpp:380] inception_3a/pool -> inception_3a/pool
I0710 19:59:35.811875  9991 net.cpp:122] Setting up inception_3a/pool
I0710 19:59:35.811887  9991 net.cpp:129] Top shape: 16 192 28 28 (2408448)
I0710 19:59:35.811902  9991 net.cpp:137] Memory required for data: 380880768
I0710 19:59:35.811905  9991 layer_factory.hpp:77] Creating layer inception_3a/pool_proj
I0710 19:59:35.811915  9991 net.cpp:84] Creating Layer inception_3a/pool_proj
I0710 19:59:35.811919  9991 net.cpp:406] inception_3a/pool_proj <- inception_3a/pool
I0710 19:59:35.811928  9991 net.cpp:380] inception_3a/pool_proj -> inception_3a/pool_proj
I0710 19:59:35.813060  9991 net.cpp:122] Setting up inception_3a/pool_proj
I0710 19:59:35.813072  9991 net.cpp:129] Top shape: 16 32 28 28 (401408)
I0710 19:59:35.813086  9991 net.cpp:137] Memory required for data: 382486400
I0710 19:59:35.813097  9991 layer_factory.hpp:77] Creating layer inception_3a/relu_pool_proj
I0710 19:59:35.813105  9991 net.cpp:84] Creating Layer inception_3a/relu_pool_proj
I0710 19:59:35.813133  9991 net.cpp:406] inception_3a/relu_pool_proj <- inception_3a/pool_proj
I0710 19:59:35.813138  9991 net.cpp:367] inception_3a/relu_pool_proj -> inception_3a/pool_proj (in-place)
I0710 19:59:35.813653  9991 net.cpp:122] Setting up inception_3a/relu_pool_proj
I0710 19:59:35.813665  9991 net.cpp:129] Top shape: 16 32 28 28 (401408)
I0710 19:59:35.813679  9991 net.cpp:137] Memory required for data: 384092032
I0710 19:59:35.813683  9991 layer_factory.hpp:77] Creating layer inception_3a/output
I0710 19:59:35.813689  9991 net.cpp:84] Creating Layer inception_3a/output
I0710 19:59:35.813693  9991 net.cpp:406] inception_3a/output <- inception_3a/1x1
I0710 19:59:35.813697  9991 net.cpp:406] inception_3a/output <- inception_3a/3x3
I0710 19:59:35.813700  9991 net.cpp:406] inception_3a/output <- inception_3a/5x5
I0710 19:59:35.813704  9991 net.cpp:406] inception_3a/output <- inception_3a/pool_proj
I0710 19:59:35.813710  9991 net.cpp:380] inception_3a/output -> inception_3a/output
I0710 19:59:35.813771  9991 net.cpp:122] Setting up inception_3a/output
I0710 19:59:35.813778  9991 net.cpp:129] Top shape: 16 256 28 28 (3211264)
I0710 19:59:35.813781  9991 net.cpp:137] Memory required for data: 396937088
I0710 19:59:35.813784  9991 layer_factory.hpp:77] Creating layer inception_3a/output_inception_3a/output_0_split
I0710 19:59:35.813791  9991 net.cpp:84] Creating Layer inception_3a/output_inception_3a/output_0_split
I0710 19:59:35.813793  9991 net.cpp:406] inception_3a/output_inception_3a/output_0_split <- inception_3a/output
I0710 19:59:35.813800  9991 net.cpp:380] inception_3a/output_inception_3a/output_0_split -> inception_3a/output_inception_3a/output_0_split_0
I0710 19:59:35.813807  9991 net.cpp:380] inception_3a/output_inception_3a/output_0_split -> inception_3a/output_inception_3a/output_0_split_1
I0710 19:59:35.813813  9991 net.cpp:380] inception_3a/output_inception_3a/output_0_split -> inception_3a/output_inception_3a/output_0_split_2
I0710 19:59:35.813820  9991 net.cpp:380] inception_3a/output_inception_3a/output_0_split -> inception_3a/output_inception_3a/output_0_split_3
I0710 19:59:35.813827  9991 net.cpp:380] inception_3a/output_inception_3a/output_0_split -> inception_3a/output_inception_3a/output_0_split_4
I0710 19:59:35.813915  9991 net.cpp:122] Setting up inception_3a/output_inception_3a/output_0_split
I0710 19:59:35.813921  9991 net.cpp:129] Top shape: 16 256 28 28 (3211264)
I0710 19:59:35.813925  9991 net.cpp:129] Top shape: 16 256 28 28 (3211264)
I0710 19:59:35.813930  9991 net.cpp:129] Top shape: 16 256 28 28 (3211264)
I0710 19:59:35.813933  9991 net.cpp:129] Top shape: 16 256 28 28 (3211264)
I0710 19:59:35.813937  9991 net.cpp:129] Top shape: 16 256 28 28 (3211264)
I0710 19:59:35.813941  9991 net.cpp:137] Memory required for data: 461162368
I0710 19:59:35.813943  9991 layer_factory.hpp:77] Creating layer temp1
I0710 19:59:35.813952  9991 net.cpp:84] Creating Layer temp1
I0710 19:59:35.813956  9991 net.cpp:406] temp1 <- inception_3a/output_inception_3a/output_0_split_0
I0710 19:59:35.813961  9991 net.cpp:380] temp1 -> temp1
I0710 19:59:36.154351  9991 net.cpp:122] Setting up temp1
I0710 19:59:36.154402  9991 net.cpp:129] Top shape: 16 256 (4096)
I0710 19:59:36.154407  9991 net.cpp:137] Memory required for data: 461178752
I0710 19:59:36.154418  9991 layer_factory.hpp:77] Creating layer temp1_relu
I0710 19:59:36.154429  9991 net.cpp:84] Creating Layer temp1_relu
I0710 19:59:36.154434  9991 net.cpp:406] temp1_relu <- temp1
I0710 19:59:36.154443  9991 net.cpp:367] temp1_relu -> temp1 (in-place)
I0710 19:59:36.154716  9991 net.cpp:122] Setting up temp1_relu
I0710 19:59:36.154726  9991 net.cpp:129] Top shape: 16 256 (4096)
I0710 19:59:36.154728  9991 net.cpp:137] Memory required for data: 461195136
I0710 19:59:36.154731  9991 layer_factory.hpp:77] Creating layer temp1_drop
I0710 19:59:36.154739  9991 net.cpp:84] Creating Layer temp1_drop
I0710 19:59:36.154742  9991 net.cpp:406] temp1_drop <- temp1
I0710 19:59:36.154748  9991 net.cpp:367] temp1_drop -> temp1 (in-place)
I0710 19:59:36.154803  9991 net.cpp:122] Setting up temp1_drop
I0710 19:59:36.154810  9991 net.cpp:129] Top shape: 16 256 (4096)
I0710 19:59:36.154814  9991 net.cpp:137] Memory required for data: 461211520
I0710 19:59:36.154816  9991 layer_factory.hpp:77] Creating layer inception_3b/1x1
I0710 19:59:36.154832  9991 net.cpp:84] Creating Layer inception_3b/1x1
I0710 19:59:36.154837  9991 net.cpp:406] inception_3b/1x1 <- inception_3a/output_inception_3a/output_0_split_1
I0710 19:59:36.154844  9991 net.cpp:380] inception_3b/1x1 -> inception_3b/1x1
I0710 19:59:36.156493  9991 net.cpp:122] Setting up inception_3b/1x1
I0710 19:59:36.156507  9991 net.cpp:129] Top shape: 16 128 28 28 (1605632)
I0710 19:59:36.156520  9991 net.cpp:137] Memory required for data: 467634048
I0710 19:59:36.156527  9991 layer_factory.hpp:77] Creating layer inception_3b/relu_1x1
I0710 19:59:36.156543  9991 net.cpp:84] Creating Layer inception_3b/relu_1x1
I0710 19:59:36.156548  9991 net.cpp:406] inception_3b/relu_1x1 <- inception_3b/1x1
I0710 19:59:36.156553  9991 net.cpp:367] inception_3b/relu_1x1 -> inception_3b/1x1 (in-place)
I0710 19:59:36.157006  9991 net.cpp:122] Setting up inception_3b/relu_1x1
I0710 19:59:36.157032  9991 net.cpp:129] Top shape: 16 128 28 28 (1605632)
I0710 19:59:36.157034  9991 net.cpp:137] Memory required for data: 474056576
I0710 19:59:36.157038  9991 layer_factory.hpp:77] Creating layer inception_3b/3x3_reduce
I0710 19:59:36.157052  9991 net.cpp:84] Creating Layer inception_3b/3x3_reduce
I0710 19:59:36.157055  9991 net.cpp:406] inception_3b/3x3_reduce <- inception_3a/output_inception_3a/output_0_split_2
I0710 19:59:36.157061  9991 net.cpp:380] inception_3b/3x3_reduce -> inception_3b/3x3_reduce
I0710 19:59:36.158556  9991 net.cpp:122] Setting up inception_3b/3x3_reduce
I0710 19:59:36.158583  9991 net.cpp:129] Top shape: 16 128 28 28 (1605632)
I0710 19:59:36.158586  9991 net.cpp:137] Memory required for data: 480479104
I0710 19:59:36.158592  9991 layer_factory.hpp:77] Creating layer inception_3b/relu_3x3_reduce
I0710 19:59:36.158598  9991 net.cpp:84] Creating Layer inception_3b/relu_3x3_reduce
I0710 19:59:36.158602  9991 net.cpp:406] inception_3b/relu_3x3_reduce <- inception_3b/3x3_reduce
I0710 19:59:36.158608  9991 net.cpp:367] inception_3b/relu_3x3_reduce -> inception_3b/3x3_reduce (in-place)
I0710 19:59:36.158814  9991 net.cpp:122] Setting up inception_3b/relu_3x3_reduce
I0710 19:59:36.158825  9991 net.cpp:129] Top shape: 16 128 28 28 (1605632)
I0710 19:59:36.158828  9991 net.cpp:137] Memory required for data: 486901632
I0710 19:59:36.158831  9991 layer_factory.hpp:77] Creating layer inception_3b/3x3
I0710 19:59:36.158841  9991 net.cpp:84] Creating Layer inception_3b/3x3
I0710 19:59:36.158845  9991 net.cpp:406] inception_3b/3x3 <- inception_3b/3x3_reduce
I0710 19:59:36.158854  9991 net.cpp:380] inception_3b/3x3 -> inception_3b/3x3
I0710 19:59:36.161882  9991 net.cpp:122] Setting up inception_3b/3x3
I0710 19:59:36.161895  9991 net.cpp:129] Top shape: 16 192 28 28 (2408448)
I0710 19:59:36.161898  9991 net.cpp:137] Memory required for data: 496535424
I0710 19:59:36.161904  9991 layer_factory.hpp:77] Creating layer inception_3b/relu_3x3
I0710 19:59:36.161911  9991 net.cpp:84] Creating Layer inception_3b/relu_3x3
I0710 19:59:36.161914  9991 net.cpp:406] inception_3b/relu_3x3 <- inception_3b/3x3
I0710 19:59:36.161919  9991 net.cpp:367] inception_3b/relu_3x3 -> inception_3b/3x3 (in-place)
I0710 19:59:36.162112  9991 net.cpp:122] Setting up inception_3b/relu_3x3
I0710 19:59:36.162122  9991 net.cpp:129] Top shape: 16 192 28 28 (2408448)
I0710 19:59:36.162125  9991 net.cpp:137] Memory required for data: 506169216
I0710 19:59:36.162128  9991 layer_factory.hpp:77] Creating layer inception_3b/5x5_reduce
I0710 19:59:36.162137  9991 net.cpp:84] Creating Layer inception_3b/5x5_reduce
I0710 19:59:36.162142  9991 net.cpp:406] inception_3b/5x5_reduce <- inception_3a/output_inception_3a/output_0_split_3
I0710 19:59:36.162160  9991 net.cpp:380] inception_3b/5x5_reduce -> inception_3b/5x5_reduce
I0710 19:59:36.163533  9991 net.cpp:122] Setting up inception_3b/5x5_reduce
I0710 19:59:36.163556  9991 net.cpp:129] Top shape: 16 32 28 28 (401408)
I0710 19:59:36.163559  9991 net.cpp:137] Memory required for data: 507774848
I0710 19:59:36.163565  9991 layer_factory.hpp:77] Creating layer inception_3b/relu_5x5_reduce
I0710 19:59:36.163573  9991 net.cpp:84] Creating Layer inception_3b/relu_5x5_reduce
I0710 19:59:36.163576  9991 net.cpp:406] inception_3b/relu_5x5_reduce <- inception_3b/5x5_reduce
I0710 19:59:36.163580  9991 net.cpp:367] inception_3b/relu_5x5_reduce -> inception_3b/5x5_reduce (in-place)
I0710 19:59:36.164031  9991 net.cpp:122] Setting up inception_3b/relu_5x5_reduce
I0710 19:59:36.164042  9991 net.cpp:129] Top shape: 16 32 28 28 (401408)
I0710 19:59:36.164046  9991 net.cpp:137] Memory required for data: 509380480
I0710 19:59:36.164048  9991 layer_factory.hpp:77] Creating layer inception_3b/5x5
I0710 19:59:36.164059  9991 net.cpp:84] Creating Layer inception_3b/5x5
I0710 19:59:36.164062  9991 net.cpp:406] inception_3b/5x5 <- inception_3b/5x5_reduce
I0710 19:59:36.164069  9991 net.cpp:380] inception_3b/5x5 -> inception_3b/5x5
I0710 19:59:36.166009  9991 net.cpp:122] Setting up inception_3b/5x5
I0710 19:59:36.166024  9991 net.cpp:129] Top shape: 16 96 28 28 (1204224)
I0710 19:59:36.166028  9991 net.cpp:137] Memory required for data: 514197376
I0710 19:59:36.166033  9991 layer_factory.hpp:77] Creating layer inception_3b/relu_5x5
I0710 19:59:36.166038  9991 net.cpp:84] Creating Layer inception_3b/relu_5x5
I0710 19:59:36.166041  9991 net.cpp:406] inception_3b/relu_5x5 <- inception_3b/5x5
I0710 19:59:36.166045  9991 net.cpp:367] inception_3b/relu_5x5 -> inception_3b/5x5 (in-place)
I0710 19:59:36.166254  9991 net.cpp:122] Setting up inception_3b/relu_5x5
I0710 19:59:36.166263  9991 net.cpp:129] Top shape: 16 96 28 28 (1204224)
I0710 19:59:36.166266  9991 net.cpp:137] Memory required for data: 519014272
I0710 19:59:36.166270  9991 layer_factory.hpp:77] Creating layer inception_3b/pool
I0710 19:59:36.166277  9991 net.cpp:84] Creating Layer inception_3b/pool
I0710 19:59:36.166281  9991 net.cpp:406] inception_3b/pool <- inception_3a/output_inception_3a/output_0_split_4
I0710 19:59:36.166286  9991 net.cpp:380] inception_3b/pool -> inception_3b/pool
I0710 19:59:36.166754  9991 net.cpp:122] Setting up inception_3b/pool
I0710 19:59:36.166765  9991 net.cpp:129] Top shape: 16 256 28 28 (3211264)
I0710 19:59:36.166769  9991 net.cpp:137] Memory required for data: 531859328
I0710 19:59:36.166771  9991 layer_factory.hpp:77] Creating layer inception_3b/pool_proj
I0710 19:59:36.166780  9991 net.cpp:84] Creating Layer inception_3b/pool_proj
I0710 19:59:36.166785  9991 net.cpp:406] inception_3b/pool_proj <- inception_3b/pool
I0710 19:59:36.166791  9991 net.cpp:380] inception_3b/pool_proj -> inception_3b/pool_proj
I0710 19:59:36.167964  9991 net.cpp:122] Setting up inception_3b/pool_proj
I0710 19:59:36.167976  9991 net.cpp:129] Top shape: 16 64 28 28 (802816)
I0710 19:59:36.167979  9991 net.cpp:137] Memory required for data: 535070592
I0710 19:59:36.167985  9991 layer_factory.hpp:77] Creating layer inception_3b/relu_pool_proj
I0710 19:59:36.167990  9991 net.cpp:84] Creating Layer inception_3b/relu_pool_proj
I0710 19:59:36.167994  9991 net.cpp:406] inception_3b/relu_pool_proj <- inception_3b/pool_proj
I0710 19:59:36.168001  9991 net.cpp:367] inception_3b/relu_pool_proj -> inception_3b/pool_proj (in-place)
I0710 19:59:36.168445  9991 net.cpp:122] Setting up inception_3b/relu_pool_proj
I0710 19:59:36.168457  9991 net.cpp:129] Top shape: 16 64 28 28 (802816)
I0710 19:59:36.168460  9991 net.cpp:137] Memory required for data: 538281856
I0710 19:59:36.168463  9991 layer_factory.hpp:77] Creating layer inception_3b/output
I0710 19:59:36.168469  9991 net.cpp:84] Creating Layer inception_3b/output
I0710 19:59:36.168473  9991 net.cpp:406] inception_3b/output <- inception_3b/1x1
I0710 19:59:36.168476  9991 net.cpp:406] inception_3b/output <- inception_3b/3x3
I0710 19:59:36.168479  9991 net.cpp:406] inception_3b/output <- inception_3b/5x5
I0710 19:59:36.168484  9991 net.cpp:406] inception_3b/output <- inception_3b/pool_proj
I0710 19:59:36.168511  9991 net.cpp:380] inception_3b/output -> inception_3b/output
I0710 19:59:36.168551  9991 net.cpp:122] Setting up inception_3b/output
I0710 19:59:36.168560  9991 net.cpp:129] Top shape: 16 480 28 28 (6021120)
I0710 19:59:36.168562  9991 net.cpp:137] Memory required for data: 562366336
I0710 19:59:36.168565  9991 layer_factory.hpp:77] Creating layer inception_3b/output_inception_3b/output_0_split
I0710 19:59:36.168570  9991 net.cpp:84] Creating Layer inception_3b/output_inception_3b/output_0_split
I0710 19:59:36.168586  9991 net.cpp:406] inception_3b/output_inception_3b/output_0_split <- inception_3b/output
I0710 19:59:36.168592  9991 net.cpp:380] inception_3b/output_inception_3b/output_0_split -> inception_3b/output_inception_3b/output_0_split_0
I0710 19:59:36.168598  9991 net.cpp:380] inception_3b/output_inception_3b/output_0_split -> inception_3b/output_inception_3b/output_0_split_1
I0710 19:59:36.168648  9991 net.cpp:122] Setting up inception_3b/output_inception_3b/output_0_split
I0710 19:59:36.168655  9991 net.cpp:129] Top shape: 16 480 28 28 (6021120)
I0710 19:59:36.168659  9991 net.cpp:129] Top shape: 16 480 28 28 (6021120)
I0710 19:59:36.168661  9991 net.cpp:137] Memory required for data: 610535296
I0710 19:59:36.168664  9991 layer_factory.hpp:77] Creating layer temp2
I0710 19:59:36.168673  9991 net.cpp:84] Creating Layer temp2
I0710 19:59:36.168675  9991 net.cpp:406] temp2 <- inception_3b/output_inception_3b/output_0_split_0
I0710 19:59:36.168682  9991 net.cpp:380] temp2 -> temp2
I0710 19:59:36.802063  9991 net.cpp:122] Setting up temp2
I0710 19:59:36.802114  9991 net.cpp:129] Top shape: 16 256 (4096)
I0710 19:59:36.802119  9991 net.cpp:137] Memory required for data: 610551680
I0710 19:59:36.802139  9991 layer_factory.hpp:77] Creating layer temp2_relu
I0710 19:59:36.802151  9991 net.cpp:84] Creating Layer temp2_relu
I0710 19:59:36.802156  9991 net.cpp:406] temp2_relu <- temp2
I0710 19:59:36.802165  9991 net.cpp:367] temp2_relu -> temp2 (in-place)
I0710 19:59:36.802440  9991 net.cpp:122] Setting up temp2_relu
I0710 19:59:36.802450  9991 net.cpp:129] Top shape: 16 256 (4096)
I0710 19:59:36.802453  9991 net.cpp:137] Memory required for data: 610568064
I0710 19:59:36.802456  9991 layer_factory.hpp:77] Creating layer temp2_drop
I0710 19:59:36.802465  9991 net.cpp:84] Creating Layer temp2_drop
I0710 19:59:36.802469  9991 net.cpp:406] temp2_drop <- temp2
I0710 19:59:36.802474  9991 net.cpp:367] temp2_drop -> temp2 (in-place)
I0710 19:59:36.802513  9991 net.cpp:122] Setting up temp2_drop
I0710 19:59:36.802520  9991 net.cpp:129] Top shape: 16 256 (4096)
I0710 19:59:36.802522  9991 net.cpp:137] Memory required for data: 610584448
I0710 19:59:36.802525  9991 layer_factory.hpp:77] Creating layer pool3/3x3_s2
I0710 19:59:36.802532  9991 net.cpp:84] Creating Layer pool3/3x3_s2
I0710 19:59:36.802536  9991 net.cpp:406] pool3/3x3_s2 <- inception_3b/output_inception_3b/output_0_split_1
I0710 19:59:36.802543  9991 net.cpp:380] pool3/3x3_s2 -> pool3/3x3_s2
I0710 19:59:36.802603  9991 net.cpp:122] Setting up pool3/3x3_s2
I0710 19:59:36.802611  9991 net.cpp:129] Top shape: 16 480 14 14 (1505280)
I0710 19:59:36.802614  9991 net.cpp:137] Memory required for data: 616605568
I0710 19:59:36.802616  9991 layer_factory.hpp:77] Creating layer pool3/3x3_s2_pool3/3x3_s2_0_split
I0710 19:59:36.802625  9991 net.cpp:84] Creating Layer pool3/3x3_s2_pool3/3x3_s2_0_split
I0710 19:59:36.802628  9991 net.cpp:406] pool3/3x3_s2_pool3/3x3_s2_0_split <- pool3/3x3_s2
I0710 19:59:36.802634  9991 net.cpp:380] pool3/3x3_s2_pool3/3x3_s2_0_split -> pool3/3x3_s2_pool3/3x3_s2_0_split_0
I0710 19:59:36.802641  9991 net.cpp:380] pool3/3x3_s2_pool3/3x3_s2_0_split -> pool3/3x3_s2_pool3/3x3_s2_0_split_1
I0710 19:59:36.802647  9991 net.cpp:380] pool3/3x3_s2_pool3/3x3_s2_0_split -> pool3/3x3_s2_pool3/3x3_s2_0_split_2
I0710 19:59:36.802654  9991 net.cpp:380] pool3/3x3_s2_pool3/3x3_s2_0_split -> pool3/3x3_s2_pool3/3x3_s2_0_split_3
I0710 19:59:36.802726  9991 net.cpp:122] Setting up pool3/3x3_s2_pool3/3x3_s2_0_split
I0710 19:59:36.802752  9991 net.cpp:129] Top shape: 16 480 14 14 (1505280)
I0710 19:59:36.802757  9991 net.cpp:129] Top shape: 16 480 14 14 (1505280)
I0710 19:59:36.802759  9991 net.cpp:129] Top shape: 16 480 14 14 (1505280)
I0710 19:59:36.802763  9991 net.cpp:129] Top shape: 16 480 14 14 (1505280)
I0710 19:59:36.802765  9991 net.cpp:137] Memory required for data: 640690048
I0710 19:59:36.802768  9991 layer_factory.hpp:77] Creating layer inception_4a/1x1
I0710 19:59:36.802783  9991 net.cpp:84] Creating Layer inception_4a/1x1
I0710 19:59:36.802785  9991 net.cpp:406] inception_4a/1x1 <- pool3/3x3_s2_pool3/3x3_s2_0_split_0
I0710 19:59:36.802793  9991 net.cpp:380] inception_4a/1x1 -> inception_4a/1x1
I0710 19:59:36.805378  9991 net.cpp:122] Setting up inception_4a/1x1
I0710 19:59:36.805404  9991 net.cpp:129] Top shape: 16 192 14 14 (602112)
I0710 19:59:36.805408  9991 net.cpp:137] Memory required for data: 643098496
I0710 19:59:36.805414  9991 layer_factory.hpp:77] Creating layer inception_4a/relu_1x1
I0710 19:59:36.805420  9991 net.cpp:84] Creating Layer inception_4a/relu_1x1
I0710 19:59:36.805423  9991 net.cpp:406] inception_4a/relu_1x1 <- inception_4a/1x1
I0710 19:59:36.805430  9991 net.cpp:367] inception_4a/relu_1x1 -> inception_4a/1x1 (in-place)
I0710 19:59:36.805920  9991 net.cpp:122] Setting up inception_4a/relu_1x1
I0710 19:59:36.805933  9991 net.cpp:129] Top shape: 16 192 14 14 (602112)
I0710 19:59:36.805936  9991 net.cpp:137] Memory required for data: 645506944
I0710 19:59:36.805951  9991 layer_factory.hpp:77] Creating layer inception_4a/3x3_reduce
I0710 19:59:36.805963  9991 net.cpp:84] Creating Layer inception_4a/3x3_reduce
I0710 19:59:36.805968  9991 net.cpp:406] inception_4a/3x3_reduce <- pool3/3x3_s2_pool3/3x3_s2_0_split_1
I0710 19:59:36.805974  9991 net.cpp:380] inception_4a/3x3_reduce -> inception_4a/3x3_reduce
I0710 19:59:36.807776  9991 net.cpp:122] Setting up inception_4a/3x3_reduce
I0710 19:59:36.807790  9991 net.cpp:129] Top shape: 16 96 14 14 (301056)
I0710 19:59:36.807803  9991 net.cpp:137] Memory required for data: 646711168
I0710 19:59:36.807809  9991 layer_factory.hpp:77] Creating layer inception_4a/relu_3x3_reduce
I0710 19:59:36.807816  9991 net.cpp:84] Creating Layer inception_4a/relu_3x3_reduce
I0710 19:59:36.807821  9991 net.cpp:406] inception_4a/relu_3x3_reduce <- inception_4a/3x3_reduce
I0710 19:59:36.807826  9991 net.cpp:367] inception_4a/relu_3x3_reduce -> inception_4a/3x3_reduce (in-place)
I0710 19:59:36.808027  9991 net.cpp:122] Setting up inception_4a/relu_3x3_reduce
I0710 19:59:36.808037  9991 net.cpp:129] Top shape: 16 96 14 14 (301056)
I0710 19:59:36.808040  9991 net.cpp:137] Memory required for data: 647915392
I0710 19:59:36.808043  9991 layer_factory.hpp:77] Creating layer inception_4a/3x3
I0710 19:59:36.808054  9991 net.cpp:84] Creating Layer inception_4a/3x3
I0710 19:59:36.808058  9991 net.cpp:406] inception_4a/3x3 <- inception_4a/3x3_reduce
I0710 19:59:36.808066  9991 net.cpp:380] inception_4a/3x3 -> inception_4a/3x3
I0710 19:59:36.810956  9991 net.cpp:122] Setting up inception_4a/3x3
I0710 19:59:36.810969  9991 net.cpp:129] Top shape: 16 208 14 14 (652288)
I0710 19:59:36.810983  9991 net.cpp:137] Memory required for data: 650524544
I0710 19:59:36.810989  9991 layer_factory.hpp:77] Creating layer inception_4a/relu_3x3
I0710 19:59:36.810995  9991 net.cpp:84] Creating Layer inception_4a/relu_3x3
I0710 19:59:36.810999  9991 net.cpp:406] inception_4a/relu_3x3 <- inception_4a/3x3
I0710 19:59:36.811007  9991 net.cpp:367] inception_4a/relu_3x3 -> inception_4a/3x3 (in-place)
I0710 19:59:36.811210  9991 net.cpp:122] Setting up inception_4a/relu_3x3
I0710 19:59:36.811220  9991 net.cpp:129] Top shape: 16 208 14 14 (652288)
I0710 19:59:36.811223  9991 net.cpp:137] Memory required for data: 653133696
I0710 19:59:36.811226  9991 layer_factory.hpp:77] Creating layer inception_4a/5x5_reduce
I0710 19:59:36.811236  9991 net.cpp:84] Creating Layer inception_4a/5x5_reduce
I0710 19:59:36.811240  9991 net.cpp:406] inception_4a/5x5_reduce <- pool3/3x3_s2_pool3/3x3_s2_0_split_2
I0710 19:59:36.811249  9991 net.cpp:380] inception_4a/5x5_reduce -> inception_4a/5x5_reduce
I0710 19:59:36.812649  9991 net.cpp:122] Setting up inception_4a/5x5_reduce
I0710 19:59:36.812662  9991 net.cpp:129] Top shape: 16 16 14 14 (50176)
I0710 19:59:36.812665  9991 net.cpp:137] Memory required for data: 653334400
I0710 19:59:36.812670  9991 layer_factory.hpp:77] Creating layer inception_4a/relu_5x5_reduce
I0710 19:59:36.812676  9991 net.cpp:84] Creating Layer inception_4a/relu_5x5_reduce
I0710 19:59:36.812680  9991 net.cpp:406] inception_4a/relu_5x5_reduce <- inception_4a/5x5_reduce
I0710 19:59:36.812685  9991 net.cpp:367] inception_4a/relu_5x5_reduce -> inception_4a/5x5_reduce (in-place)
I0710 19:59:36.813133  9991 net.cpp:122] Setting up inception_4a/relu_5x5_reduce
I0710 19:59:36.813144  9991 net.cpp:129] Top shape: 16 16 14 14 (50176)
I0710 19:59:36.813148  9991 net.cpp:137] Memory required for data: 653535104
I0710 19:59:36.813150  9991 layer_factory.hpp:77] Creating layer inception_4a/5x5
I0710 19:59:36.813159  9991 net.cpp:84] Creating Layer inception_4a/5x5
I0710 19:59:36.813163  9991 net.cpp:406] inception_4a/5x5 <- inception_4a/5x5_reduce
I0710 19:59:36.813169  9991 net.cpp:380] inception_4a/5x5 -> inception_4a/5x5
I0710 19:59:36.814613  9991 net.cpp:122] Setting up inception_4a/5x5
I0710 19:59:36.814626  9991 net.cpp:129] Top shape: 16 48 14 14 (150528)
I0710 19:59:36.814630  9991 net.cpp:137] Memory required for data: 654137216
I0710 19:59:36.814635  9991 layer_factory.hpp:77] Creating layer inception_4a/relu_5x5
I0710 19:59:36.814640  9991 net.cpp:84] Creating Layer inception_4a/relu_5x5
I0710 19:59:36.814643  9991 net.cpp:406] inception_4a/relu_5x5 <- inception_4a/5x5
I0710 19:59:36.814649  9991 net.cpp:367] inception_4a/relu_5x5 -> inception_4a/5x5 (in-place)
I0710 19:59:36.814851  9991 net.cpp:122] Setting up inception_4a/relu_5x5
I0710 19:59:36.814862  9991 net.cpp:129] Top shape: 16 48 14 14 (150528)
I0710 19:59:36.814864  9991 net.cpp:137] Memory required for data: 654739328
I0710 19:59:36.814867  9991 layer_factory.hpp:77] Creating layer inception_4a/pool
I0710 19:59:36.814873  9991 net.cpp:84] Creating Layer inception_4a/pool
I0710 19:59:36.814877  9991 net.cpp:406] inception_4a/pool <- pool3/3x3_s2_pool3/3x3_s2_0_split_3
I0710 19:59:36.814894  9991 net.cpp:380] inception_4a/pool -> inception_4a/pool
I0710 19:59:36.815390  9991 net.cpp:122] Setting up inception_4a/pool
I0710 19:59:36.815402  9991 net.cpp:129] Top shape: 16 480 14 14 (1505280)
I0710 19:59:36.815405  9991 net.cpp:137] Memory required for data: 660760448
I0710 19:59:36.815408  9991 layer_factory.hpp:77] Creating layer inception_4a/pool_proj
I0710 19:59:36.815418  9991 net.cpp:84] Creating Layer inception_4a/pool_proj
I0710 19:59:36.815421  9991 net.cpp:406] inception_4a/pool_proj <- inception_4a/pool
I0710 19:59:36.815428  9991 net.cpp:380] inception_4a/pool_proj -> inception_4a/pool_proj
I0710 19:59:36.816684  9991 net.cpp:122] Setting up inception_4a/pool_proj
I0710 19:59:36.816697  9991 net.cpp:129] Top shape: 16 64 14 14 (200704)
I0710 19:59:36.816700  9991 net.cpp:137] Memory required for data: 661563264
I0710 19:59:36.816717  9991 layer_factory.hpp:77] Creating layer inception_4a/relu_pool_proj
I0710 19:59:36.816723  9991 net.cpp:84] Creating Layer inception_4a/relu_pool_proj
I0710 19:59:36.816726  9991 net.cpp:406] inception_4a/relu_pool_proj <- inception_4a/pool_proj
I0710 19:59:36.816733  9991 net.cpp:367] inception_4a/relu_pool_proj -> inception_4a/pool_proj (in-place)
I0710 19:59:36.817431  9991 net.cpp:122] Setting up inception_4a/relu_pool_proj
I0710 19:59:36.817445  9991 net.cpp:129] Top shape: 16 64 14 14 (200704)
I0710 19:59:36.817446  9991 net.cpp:137] Memory required for data: 662366080
I0710 19:59:36.817450  9991 layer_factory.hpp:77] Creating layer inception_4a/output
I0710 19:59:36.817490  9991 net.cpp:84] Creating Layer inception_4a/output
I0710 19:59:36.817507  9991 net.cpp:406] inception_4a/output <- inception_4a/1x1
I0710 19:59:36.817512  9991 net.cpp:406] inception_4a/output <- inception_4a/3x3
I0710 19:59:36.817515  9991 net.cpp:406] inception_4a/output <- inception_4a/5x5
I0710 19:59:36.817541  9991 net.cpp:406] inception_4a/output <- inception_4a/pool_proj
I0710 19:59:36.817548  9991 net.cpp:380] inception_4a/output -> inception_4a/output
I0710 19:59:36.817589  9991 net.cpp:122] Setting up inception_4a/output
I0710 19:59:36.817597  9991 net.cpp:129] Top shape: 16 512 14 14 (1605632)
I0710 19:59:36.817600  9991 net.cpp:137] Memory required for data: 668788608
I0710 19:59:36.817605  9991 layer_factory.hpp:77] Creating layer loss1/ave_pool
I0710 19:59:36.817612  9991 net.cpp:84] Creating Layer loss1/ave_pool
I0710 19:59:36.817616  9991 net.cpp:406] loss1/ave_pool <- inception_4a/output
I0710 19:59:36.817621  9991 net.cpp:380] loss1/ave_pool -> loss1/ave_pool
I0710 19:59:36.818116  9991 net.cpp:122] Setting up loss1/ave_pool
I0710 19:59:36.818128  9991 net.cpp:129] Top shape: 16 512 4 4 (131072)
I0710 19:59:36.818130  9991 net.cpp:137] Memory required for data: 669312896
I0710 19:59:36.818133  9991 layer_factory.hpp:77] Creating layer loss1/conv
I0710 19:59:36.818142  9991 net.cpp:84] Creating Layer loss1/conv
I0710 19:59:36.818146  9991 net.cpp:406] loss1/conv <- loss1/ave_pool
I0710 19:59:36.818151  9991 net.cpp:380] loss1/conv -> loss1/conv
I0710 19:59:36.819609  9991 net.cpp:122] Setting up loss1/conv
I0710 19:59:36.819623  9991 net.cpp:129] Top shape: 16 128 4 4 (32768)
I0710 19:59:36.819627  9991 net.cpp:137] Memory required for data: 669443968
I0710 19:59:36.819631  9991 layer_factory.hpp:77] Creating layer loss1/relu_conv
I0710 19:59:36.819636  9991 net.cpp:84] Creating Layer loss1/relu_conv
I0710 19:59:36.819639  9991 net.cpp:406] loss1/relu_conv <- loss1/conv
I0710 19:59:36.819643  9991 net.cpp:367] loss1/relu_conv -> loss1/conv (in-place)
I0710 19:59:36.820094  9991 net.cpp:122] Setting up loss1/relu_conv
I0710 19:59:36.820106  9991 net.cpp:129] Top shape: 16 128 4 4 (32768)
I0710 19:59:36.820108  9991 net.cpp:137] Memory required for data: 669575040
I0710 19:59:36.820111  9991 layer_factory.hpp:77] Creating layer temp3
I0710 19:59:36.820121  9991 net.cpp:84] Creating Layer temp3
I0710 19:59:36.820124  9991 net.cpp:406] temp3 <- loss1/conv
I0710 19:59:36.820129  9991 net.cpp:380] temp3 -> temp3
I0710 19:59:36.826962  9991 net.cpp:122] Setting up temp3
I0710 19:59:36.826974  9991 net.cpp:129] Top shape: 16 512 (8192)
I0710 19:59:36.826977  9991 net.cpp:137] Memory required for data: 669607808
I0710 19:59:36.826983  9991 layer_factory.hpp:77] Creating layer temp3_relu
I0710 19:59:36.826988  9991 net.cpp:84] Creating Layer temp3_relu
I0710 19:59:36.826992  9991 net.cpp:406] temp3_relu <- temp3
I0710 19:59:36.826997  9991 net.cpp:367] temp3_relu -> temp3 (in-place)
I0710 19:59:36.827205  9991 net.cpp:122] Setting up temp3_relu
I0710 19:59:36.827215  9991 net.cpp:129] Top shape: 16 512 (8192)
I0710 19:59:36.827219  9991 net.cpp:137] Memory required for data: 669640576
I0710 19:59:36.827221  9991 layer_factory.hpp:77] Creating layer temp3_drop
I0710 19:59:36.827226  9991 net.cpp:84] Creating Layer temp3_drop
I0710 19:59:36.827229  9991 net.cpp:406] temp3_drop <- temp3
I0710 19:59:36.827235  9991 net.cpp:367] temp3_drop -> temp3 (in-place)
I0710 19:59:36.827268  9991 net.cpp:122] Setting up temp3_drop
I0710 19:59:36.827276  9991 net.cpp:129] Top shape: 16 512 (8192)
I0710 19:59:36.827280  9991 net.cpp:137] Memory required for data: 669673344
I0710 19:59:36.827282  9991 layer_factory.hpp:77] Creating layer temp
I0710 19:59:36.827286  9991 net.cpp:84] Creating Layer temp
I0710 19:59:36.827289  9991 net.cpp:406] temp <- temp1
I0710 19:59:36.827293  9991 net.cpp:406] temp <- temp2
I0710 19:59:36.827296  9991 net.cpp:406] temp <- temp3
I0710 19:59:36.827301  9991 net.cpp:380] temp -> temp
I0710 19:59:36.827332  9991 net.cpp:122] Setting up temp
I0710 19:59:36.827338  9991 net.cpp:129] Top shape: 16 1024 (16384)
I0710 19:59:36.827342  9991 net.cpp:137] Memory required for data: 669738880
I0710 19:59:36.827343  9991 layer_factory.hpp:77] Creating layer temp_cjy
I0710 19:59:36.827352  9991 net.cpp:84] Creating Layer temp_cjy
I0710 19:59:36.827354  9991 net.cpp:406] temp_cjy <- temp
I0710 19:59:36.827371  9991 net.cpp:380] temp_cjy -> temp_cjy
I0710 19:59:36.834246  9991 net.cpp:122] Setting up temp_cjy
I0710 19:59:36.834259  9991 net.cpp:129] Top shape: 16 1024 (16384)
I0710 19:59:36.834273  9991 net.cpp:137] Memory required for data: 669804416
I0710 19:59:36.834280  9991 layer_factory.hpp:77] Creating layer temp_cjy_relu
I0710 19:59:36.834287  9991 net.cpp:84] Creating Layer temp_cjy_relu
I0710 19:59:36.834291  9991 net.cpp:406] temp_cjy_relu <- temp_cjy
I0710 19:59:36.834295  9991 net.cpp:367] temp_cjy_relu -> temp_cjy (in-place)
I0710 19:59:36.834789  9991 net.cpp:122] Setting up temp_cjy_relu
I0710 19:59:36.834800  9991 net.cpp:129] Top shape: 16 1024 (16384)
I0710 19:59:36.834813  9991 net.cpp:137] Memory required for data: 669869952
I0710 19:59:36.834817  9991 layer_factory.hpp:77] Creating layer temp3_cjy_drop
I0710 19:59:36.834822  9991 net.cpp:84] Creating Layer temp3_cjy_drop
I0710 19:59:36.834825  9991 net.cpp:406] temp3_cjy_drop <- temp_cjy
I0710 19:59:36.834833  9991 net.cpp:367] temp3_cjy_drop -> temp_cjy (in-place)
I0710 19:59:36.834882  9991 net.cpp:122] Setting up temp3_cjy_drop
I0710 19:59:36.834889  9991 net.cpp:129] Top shape: 16 1024 (16384)
I0710 19:59:36.834892  9991 net.cpp:137] Memory required for data: 669935488
I0710 19:59:36.834894  9991 layer_factory.hpp:77] Creating layer loss1/classifier_cjy
I0710 19:59:36.834902  9991 net.cpp:84] Creating Layer loss1/classifier_cjy
I0710 19:59:36.834904  9991 net.cpp:406] loss1/classifier_cjy <- temp_cjy
I0710 19:59:36.834911  9991 net.cpp:380] loss1/classifier_cjy -> loss1/classifier_cjy
I0710 19:59:36.835085  9991 net.cpp:122] Setting up loss1/classifier_cjy
I0710 19:59:36.835093  9991 net.cpp:129] Top shape: 16 5 (80)
I0710 19:59:36.835095  9991 net.cpp:137] Memory required for data: 669935808
I0710 19:59:36.835100  9991 layer_factory.hpp:77] Creating layer loss1/classifier_cjy_loss1/classifier_cjy_0_split
I0710 19:59:36.835108  9991 net.cpp:84] Creating Layer loss1/classifier_cjy_loss1/classifier_cjy_0_split
I0710 19:59:36.835110  9991 net.cpp:406] loss1/classifier_cjy_loss1/classifier_cjy_0_split <- loss1/classifier_cjy
I0710 19:59:36.835116  9991 net.cpp:380] loss1/classifier_cjy_loss1/classifier_cjy_0_split -> loss1/classifier_cjy_loss1/classifier_cjy_0_split_0
I0710 19:59:36.835124  9991 net.cpp:380] loss1/classifier_cjy_loss1/classifier_cjy_0_split -> loss1/classifier_cjy_loss1/classifier_cjy_0_split_1
I0710 19:59:36.835171  9991 net.cpp:122] Setting up loss1/classifier_cjy_loss1/classifier_cjy_0_split
I0710 19:59:36.835177  9991 net.cpp:129] Top shape: 16 5 (80)
I0710 19:59:36.835181  9991 net.cpp:129] Top shape: 16 5 (80)
I0710 19:59:36.835183  9991 net.cpp:137] Memory required for data: 669936448
I0710 19:59:36.835186  9991 layer_factory.hpp:77] Creating layer loss1/loss
I0710 19:59:36.835191  9991 net.cpp:84] Creating Layer loss1/loss
I0710 19:59:36.835194  9991 net.cpp:406] loss1/loss <- loss1/classifier_cjy_loss1/classifier_cjy_0_split_0
I0710 19:59:36.835198  9991 net.cpp:406] loss1/loss <- label_data_1_split_0
…
