…
I0713 18:59:55.941633 25233 net.cpp:294] The NetState phase (0) differed from the phase (1) specified by a rule in layer accuracy
I0713 18:59:55.941821 25233 net.cpp:51] Initializing net from parameters: 
name: "CaffeNet"
state {
  phase: TRAIN
  level: 0
  stage: ""
}
layer {
  name: "data"
  type: "Data"
  top: "data"
  top: "label"
  include {
    phase: TRAIN
  }
  transform_param {
    mirror: true
    crop_size: 227
    mean_value: 104
    mean_value: 117
    mean_value: 123
  }
  data_param {
    source: "dataset/train_lmdb"
    batch_size: 32
    backend: LMDB
  }
}
layer {
  name: "conv1"
  type: "Convolution"
  bottom: "data"
  top: "conv1"
  param {
    lr_mult: 1
    decay_mult: 1
  }
  param {
    lr_mult: 2
    decay_mult: 0
  }
  convolution_param {
    num_output: 96
    kernel_size: 11
    stride: 4
    weight_filler {
      type: "gaussian"
      std: 0.01
    }
    bias_filler {
      type: "constant"
      value: 0
    }
  }
}
layer {
  name: "relu1"
  type: "ReLU"
  bottom: "conv1"
  top: "conv1"
}
layer {
  name: "pool1"
  type: "Pooling"
  bottom: "conv1"
  top: "pool1"
  pooling_param {
    pool: MAX
    kernel_size: 3
    stride: 2
  }
}
layer {
  name: "norm1"
  type: "LRN"
  bottom: "pool1"
  top: "norm1"
  lrn_param {
    local_size: 5
    alpha: 0.0001
    beta: 0.75
  }
}
layer {
  name: "conv2"
  type: "Convolution"
  bottom: "norm1"
  top: "conv2"
  param {
    lr_mult: 1
    decay_mult: 1
  }
  param {
    lr_mult: 2
    decay_mult: 0
  }
  convolution_param {
    num_output: 256
    pad: 2
    kernel_size: 5
    group: 2
    weight_filler {
      type: "gaussian"
      std: 0.01
    }
    bias_filler {
      type: "constant"
      value: 1
    }
  }
}
layer {
  name: "relu2"
  type: "ReLU"
  bottom: "conv2"
  top: "conv2"
}
layer {
  name: "pool2"
  type: "Pooling"
  bottom: "conv2"
  top: "pool2"
  pooling_param {
    pool: MAX
    kernel_size: 3
    stride: 2
  }
}
layer {
  name: "norm2"
  type: "LRN"
  bottom: "pool2"
  top: "norm2"
  lrn_param {
    local_size: 5
    alpha: 0.0001
    beta: 0.75
  }
}
layer {
  name: "conv3"
  type: "Convolution"
  bottom: "norm2"
  top: "conv3"
  param {
    lr_mult: 1
    decay_mult: 1
  }
  param {
    lr_mult: 2
    decay_mult: 0
  }
  convolution_param {
    num_output: 384
    pad: 1
    kernel_size: 3
    weight_filler {
      type: "gaussian"
      std: 0.01
    }
    bias_filler {
      type: "constant"
      value: 0
    }
  }
}
layer {
  name: "relu3"
  type: "ReLU"
  bottom: "conv3"
  top: "conv3"
}
layer {
  name: "conv4"
  type: "Convolution"
  bottom: "conv3"
  top: "conv4"
  param {
    lr_mult: 1
    decay_mult: 1
  }
  param {
    lr_mult: 2
    decay_mult: 0
  }
  convolution_param {
    num_output: 384
    pad: 1
    kernel_size: 3
    group: 2
    weight_filler {
      type: "gaussian"
      std: 0.01
    }
    bias_filler {
      type: "constant"
      value: 1
    }
  }
}
layer {
  name: "relu4"
  type: "ReLU"
  bottom: "conv4"
  top: "conv4"
}
layer {
  name: "conv5"
  type: "Convolution"
  bottom: "conv4"
  top: "conv5"
  param {
    lr_mult: 1
    decay_mult: 1
  }
  param {
    lr_mult: 2
    decay_mult: 0
  }
  convolution_param {
    num_output: 256
    pad: 1
    kernel_size: 3
    group: 2
    weight_filler {
      type: "gaussian"
      std: 0.01
    }
    bias_filler {
      type: "constant"
      value: 1
    }
  }
}
layer {
  name: "relu5"
  type: "ReLU"
  bottom: "conv5"
  top: "conv5"
}
layer {
  name: "pool5"
  type: "Pooling"
  bottom: "conv5"
  top: "pool5"
  pooling_param {
    pool: MAX
    kernel_size: 3
    stride: 2
  }
}
layer {
  name: "fc6"
  type: "InnerProduct"
  bottom: "pool5"
  top: "fc6"
  param {
    lr_mult: 1
    decay_mult: 1
  }
  param {
    lr_mult: 2
    decay_mult: 0
  }
  inner_product_param {
    num_output: 512
    weight_filler {
      type: "gaussian"
      std: 0.005
    }
    bias_filler {
      type: "constant"
      value: 1
    }
  }
}
layer {
  name: "relu6"
  type: "ReLU"
  bottom: "fc6"
  top: "fc6"
}
layer {
  name: "drop6"
  type: "Dropout"
  bottom: "fc6"
  top: "fc6"
  dropout_param {
    dropout_ratio: 0.5
  }
}
layer {
  name: "fc7"
  type: "InnerProduct"
  bottom: "fc6"
  top: "fc7"
  param {
    lr_mult: 1
    decay_mult: 1
  }
  param {
    lr_mult: 2
    decay_mult: 0
  }
  inner_product_param {
    num_output: 512
    weight_filler {
      type: "gaussian"
      std: 0.005
    }
    bias_filler {
      type: "constant"
      value: 1
    }
  }
}
layer {
  name: "relu7"
  type: "ReLU"
  bottom: "fc7"
  top: "fc7"
}
layer {
  name: "drop7"
  type: "Dropout"
  bottom: "fc7"
  top: "fc7"
  dropout_param {
    dropout_ratio: 0.5
  }
}
layer {
  name: "fc8"
  type: "InnerProduct"
  bottom: "fc7"
  top: "fc8"
  param {
    lr_mult: 1
    decay_mult: 1
  }
  param {
    lr_mult: 2
    decay_mult: 0
  }
  inner_product_param {
    num_output: 5
    weight_filler {
      type: "gaussian"
      std: 0.01
    }
    bias_filler {
      type: "constant"
      value: 0
    }
  }
}
layer {
  name: "loss"
  type: "SoftmaxWithLoss"
  bottom: "fc8"
  bottom: "label"
  top: "loss"
}
I0713 18:59:55.941951 25233 layer_factory.hpp:77] Creating layer data
I0713 18:59:55.942096 25233 db_lmdb.cpp:35] Opened lmdb dataset/train_lmdb
I0713 18:59:55.942131 25233 net.cpp:84] Creating Layer data
I0713 18:59:55.942142 25233 net.cpp:380] data -> data
I0713 18:59:55.942169 25233 net.cpp:380] data -> label
I0713 18:59:55.943392 25233 data_layer.cpp:45] output data size: 32,3,227,227
I0713 18:59:56.010073 25233 net.cpp:122] Setting up data
I0713 18:59:56.010123 25233 net.cpp:129] Top shape: 32 3 227 227 (4946784)
I0713 18:59:56.010129 25233 net.cpp:129] Top shape: 32 (32)
I0713 18:59:56.010133 25233 net.cpp:137] Memory required for data: 19787264
I0713 18:59:56.010146 25233 layer_factory.hpp:77] Creating layer conv1
I0713 18:59:56.010184 25233 net.cpp:84] Creating Layer conv1
I0713 18:59:56.010192 25233 net.cpp:406] conv1 <- data
I0713 18:59:56.010212 25233 net.cpp:380] conv1 -> conv1
I0713 18:59:56.259964 25233 net.cpp:122] Setting up conv1
I0713 18:59:56.260007 25233 net.cpp:129] Top shape: 32 96 55 55 (9292800)
I0713 18:59:56.260012 25233 net.cpp:137] Memory required for data: 56958464
I0713 18:59:56.260038 25233 layer_factory.hpp:77] Creating layer relu1
I0713 18:59:56.260056 25233 net.cpp:84] Creating Layer relu1
I0713 18:59:56.260061 25233 net.cpp:406] relu1 <- conv1
I0713 18:59:56.260068 25233 net.cpp:367] relu1 -> conv1 (in-place)
I0713 18:59:56.260287 25233 net.cpp:122] Setting up relu1
I0713 18:59:56.260299 25233 net.cpp:129] Top shape: 32 96 55 55 (9292800)
I0713 18:59:56.260304 25233 net.cpp:137] Memory required for data: 94129664
I0713 18:59:56.260308 25233 layer_factory.hpp:77] Creating layer pool1
I0713 18:59:56.260318 25233 net.cpp:84] Creating Layer pool1
I0713 18:59:56.260323 25233 net.cpp:406] pool1 <- conv1
I0713 18:59:56.260329 25233 net.cpp:380] pool1 -> pool1
I0713 18:59:56.260388 25233 net.cpp:122] Setting up pool1
I0713 18:59:56.260397 25233 net.cpp:129] Top shape: 32 96 27 27 (2239488)
I0713 18:59:56.260401 25233 net.cpp:137] Memory required for data: 103087616
I0713 18:59:56.260404 25233 layer_factory.hpp:77] Creating layer norm1
I0713 18:59:56.260421 25233 net.cpp:84] Creating Layer norm1
I0713 18:59:56.260424 25233 net.cpp:406] norm1 <- pool1
I0713 18:59:56.260430 25233 net.cpp:380] norm1 -> norm1
I0713 18:59:56.260967 25233 net.cpp:122] Setting up norm1
I0713 18:59:56.261003 25233 net.cpp:129] Top shape: 32 96 27 27 (2239488)
I0713 18:59:56.261006 25233 net.cpp:137] Memory required for data: 112045568
I0713 18:59:56.261011 25233 layer_factory.hpp:77] Creating layer conv2
I0713 18:59:56.261029 25233 net.cpp:84] Creating Layer conv2
I0713 18:59:56.261035 25233 net.cpp:406] conv2 <- norm1
I0713 18:59:56.261044 25233 net.cpp:380] conv2 -> conv2
I0713 18:59:56.268440 25233 net.cpp:122] Setting up conv2
I0713 18:59:56.268465 25233 net.cpp:129] Top shape: 32 256 27 27 (5971968)
I0713 18:59:56.268471 25233 net.cpp:137] Memory required for data: 135933440
I0713 18:59:56.268481 25233 layer_factory.hpp:77] Creating layer relu2
I0713 18:59:56.268491 25233 net.cpp:84] Creating Layer relu2
I0713 18:59:56.268496 25233 net.cpp:406] relu2 <- conv2
I0713 18:59:56.268501 25233 net.cpp:367] relu2 -> conv2 (in-place)
I0713 18:59:56.268972 25233 net.cpp:122] Setting up relu2
I0713 18:59:56.268988 25233 net.cpp:129] Top shape: 32 256 27 27 (5971968)
I0713 18:59:56.268992 25233 net.cpp:137] Memory required for data: 159821312
I0713 18:59:56.268996 25233 layer_factory.hpp:77] Creating layer pool2
I0713 18:59:56.269004 25233 net.cpp:84] Creating Layer pool2
I0713 18:59:56.269008 25233 net.cpp:406] pool2 <- conv2
I0713 18:59:56.269016 25233 net.cpp:380] pool2 -> pool2
I0713 18:59:56.269065 25233 net.cpp:122] Setting up pool2
I0713 18:59:56.269074 25233 net.cpp:129] Top shape: 32 256 13 13 (1384448)
I0713 18:59:56.269078 25233 net.cpp:137] Memory required for data: 165359104
I0713 18:59:56.269081 25233 layer_factory.hpp:77] Creating layer norm2
I0713 18:59:56.269093 25233 net.cpp:84] Creating Layer norm2
I0713 18:59:56.269098 25233 net.cpp:406] norm2 <- pool2
I0713 18:59:56.269104 25233 net.cpp:380] norm2 -> norm2
I0713 18:59:56.269600 25233 net.cpp:122] Setting up norm2
I0713 18:59:56.269615 25233 net.cpp:129] Top shape: 32 256 13 13 (1384448)
I0713 18:59:56.269619 25233 net.cpp:137] Memory required for data: 170896896
I0713 18:59:56.269623 25233 layer_factory.hpp:77] Creating layer conv3
I0713 18:59:56.269636 25233 net.cpp:84] Creating Layer conv3
I0713 18:59:56.269642 25233 net.cpp:406] conv3 <- norm2
I0713 18:59:56.269651 25233 net.cpp:380] conv3 -> conv3
I0713 18:59:56.282863 25233 net.cpp:122] Setting up conv3
I0713 18:59:56.282881 25233 net.cpp:129] Top shape: 32 384 13 13 (2076672)
I0713 18:59:56.282886 25233 net.cpp:137] Memory required for data: 179203584
I0713 18:59:56.282896 25233 layer_factory.hpp:77] Creating layer relu3
I0713 18:59:56.282907 25233 net.cpp:84] Creating Layer relu3
I0713 18:59:56.282910 25233 net.cpp:406] relu3 <- conv3
I0713 18:59:56.282917 25233 net.cpp:367] relu3 -> conv3 (in-place)
I0713 18:59:56.283398 25233 net.cpp:122] Setting up relu3
I0713 18:59:56.283414 25233 net.cpp:129] Top shape: 32 384 13 13 (2076672)
I0713 18:59:56.283417 25233 net.cpp:137] Memory required for data: 187510272
I0713 18:59:56.283422 25233 layer_factory.hpp:77] Creating layer conv4
I0713 18:59:56.283434 25233 net.cpp:84] Creating Layer conv4
I0713 18:59:56.283438 25233 net.cpp:406] conv4 <- conv3
I0713 18:59:56.283445 25233 net.cpp:380] conv4 -> conv4
I0713 18:59:56.294879 25233 net.cpp:122] Setting up conv4
I0713 18:59:56.294898 25233 net.cpp:129] Top shape: 32 384 13 13 (2076672)
I0713 18:59:56.294903 25233 net.cpp:137] Memory required for data: 195816960
I0713 18:59:56.294910 25233 layer_factory.hpp:77] Creating layer relu4
I0713 18:59:56.294919 25233 net.cpp:84] Creating Layer relu4
I0713 18:59:56.294922 25233 net.cpp:406] relu4 <- conv4
I0713 18:59:56.294929 25233 net.cpp:367] relu4 -> conv4 (in-place)
I0713 18:59:56.295403 25233 net.cpp:122] Setting up relu4
I0713 18:59:56.295420 25233 net.cpp:129] Top shape: 32 384 13 13 (2076672)
I0713 18:59:56.295424 25233 net.cpp:137] Memory required for data: 204123648
I0713 18:59:56.295429 25233 layer_factory.hpp:77] Creating layer conv5
I0713 18:59:56.295439 25233 net.cpp:84] Creating Layer conv5
I0713 18:59:56.295444 25233 net.cpp:406] conv5 <- conv4
I0713 18:59:56.295454 25233 net.cpp:380] conv5 -> conv5
I0713 18:59:56.304435 25233 net.cpp:122] Setting up conv5
I0713 18:59:56.304477 25233 net.cpp:129] Top shape: 32 256 13 13 (1384448)
I0713 18:59:56.304484 25233 net.cpp:137] Memory required for data: 209661440
I0713 18:59:56.304497 25233 layer_factory.hpp:77] Creating layer relu5
I0713 18:59:56.304504 25233 net.cpp:84] Creating Layer relu5
I0713 18:59:56.304508 25233 net.cpp:406] relu5 <- conv5
I0713 18:59:56.304517 25233 net.cpp:367] relu5 -> conv5 (in-place)
I0713 18:59:56.304730 25233 net.cpp:122] Setting up relu5
I0713 18:59:56.304745 25233 net.cpp:129] Top shape: 32 256 13 13 (1384448)
I0713 18:59:56.304749 25233 net.cpp:137] Memory required for data: 215199232
I0713 18:59:56.304752 25233 layer_factory.hpp:77] Creating layer pool5
I0713 18:59:56.304760 25233 net.cpp:84] Creating Layer pool5
I0713 18:59:56.304764 25233 net.cpp:406] pool5 <- conv5
I0713 18:59:56.304770 25233 net.cpp:380] pool5 -> pool5
I0713 18:59:56.304821 25233 net.cpp:122] Setting up pool5
I0713 18:59:56.304831 25233 net.cpp:129] Top shape: 32 256 6 6 (294912)
I0713 18:59:56.304833 25233 net.cpp:137] Memory required for data: 216378880
I0713 18:59:56.304837 25233 layer_factory.hpp:77] Creating layer fc6
I0713 18:59:56.304852 25233 net.cpp:84] Creating Layer fc6
I0713 18:59:56.304857 25233 net.cpp:406] fc6 <- pool5
I0713 18:59:56.304863 25233 net.cpp:380] fc6 -> fc6
I0713 18:59:56.357594 25233 net.cpp:122] Setting up fc6
I0713 18:59:56.357630 25233 net.cpp:129] Top shape: 32 512 (16384)
I0713 18:59:56.357635 25233 net.cpp:137] Memory required for data: 216444416
I0713 18:59:56.357646 25233 layer_factory.hpp:77] Creating layer relu6
I0713 18:59:56.357673 25233 net.cpp:84] Creating Layer relu6
I0713 18:59:56.357678 25233 net.cpp:406] relu6 <- fc6
I0713 18:59:56.357686 25233 net.cpp:367] relu6 -> fc6 (in-place)
I0713 18:59:56.358320 25233 net.cpp:122] Setting up relu6
I0713 18:59:56.358333 25233 net.cpp:129] Top shape: 32 512 (16384)
I0713 18:59:56.358336 25233 net.cpp:137] Memory required for data: 216509952
I0713 18:59:56.358340 25233 layer_factory.hpp:77] Creating layer drop6
I0713 18:59:56.358361 25233 net.cpp:84] Creating Layer drop6
I0713 18:59:56.358364 25233 net.cpp:406] drop6 <- fc6
I0713 18:59:56.358373 25233 net.cpp:367] drop6 -> fc6 (in-place)
I0713 18:59:56.358410 25233 net.cpp:122] Setting up drop6
I0713 18:59:56.358417 25233 net.cpp:129] Top shape: 32 512 (16384)
I0713 18:59:56.358420 25233 net.cpp:137] Memory required for data: 216575488
I0713 18:59:56.358424 25233 layer_factory.hpp:77] Creating layer fc7
I0713 18:59:56.358433 25233 net.cpp:84] Creating Layer fc7
I0713 18:59:56.358436 25233 net.cpp:406] fc7 <- fc6
I0713 18:59:56.358443 25233 net.cpp:380] fc7 -> fc7
I0713 18:59:56.361579 25233 net.cpp:122] Setting up fc7
I0713 18:59:56.361593 25233 net.cpp:129] Top shape: 32 512 (16384)
I0713 18:59:56.361595 25233 net.cpp:137] Memory required for data: 216641024
I0713 18:59:56.361601 25233 layer_factory.hpp:77] Creating layer relu7
I0713 18:59:56.361619 25233 net.cpp:84] Creating Layer relu7
I0713 18:59:56.361623 25233 net.cpp:406] relu7 <- fc7
I0713 18:59:56.361629 25233 net.cpp:367] relu7 -> fc7 (in-place)
I0713 18:59:56.361834 25233 net.cpp:122] Setting up relu7
I0713 18:59:56.361843 25233 net.cpp:129] Top shape: 32 512 (16384)
I0713 18:59:56.361846 25233 net.cpp:137] Memory required for data: 216706560
I0713 18:59:56.361850 25233 layer_factory.hpp:77] Creating layer drop7
I0713 18:59:56.361855 25233 net.cpp:84] Creating Layer drop7
I0713 18:59:56.361860 25233 net.cpp:406] drop7 <- fc7
I0713 18:59:56.361868 25233 net.cpp:367] drop7 -> fc7 (in-place)
I0713 18:59:56.361893 25233 net.cpp:122] Setting up drop7
I0713 18:59:56.361901 25233 net.cpp:129] Top shape: 32 512 (16384)
I0713 18:59:56.361904 25233 net.cpp:137] Memory required for data: 216772096
I0713 18:59:56.361907 25233 layer_factory.hpp:77] Creating layer fc8
I0713 18:59:56.361913 25233 net.cpp:84] Creating Layer fc8
I0713 18:59:56.361917 25233 net.cpp:406] fc8 <- fc7
I0713 18:59:56.361923 25233 net.cpp:380] fc8 -> fc8
I0713 18:59:56.362071 25233 net.cpp:122] Setting up fc8
I0713 18:59:56.362078 25233 net.cpp:129] Top shape: 32 5 (160)
I0713 18:59:56.362098 25233 net.cpp:137] Memory required for data: 216772736
I0713 18:59:56.362105 25233 layer_factory.hpp:77] Creating layer loss
I0713 18:59:56.362112 25233 net.cpp:84] Creating Layer loss
I0713 18:59:56.362115 25233 net.cpp:406] loss <- fc8
I0713 18:59:56.362119 25233 net.cpp:406] loss <- label
I0713 18:59:56.362128 25233 net.cpp:380] loss -> loss
I0713 18:59:56.362143 25233 layer_factory.hpp:77] Creating layer loss
…
I0713 18:59:56.363142 25233 solver.cpp:190] Creating test net (#0) specified by net file: config/caffenet/train_val.prototxt
I0713 18:59:56.363178 25233 net.cpp:294] The NetState phase (1) differed from the phase (0) specified by a rule in layer data
I0713 18:59:56.363343 25233 net.cpp:51] Initializing net from parameters: 
name: "CaffeNet"
state {
  phase: TEST
}
layer {
  name: "data"
  type: "Data"
  top: "data"
  top: "label"
  include {
    phase: TEST
  }
  transform_param {
    mirror: false
    crop_size: 227
    mean_value: 104
    mean_value: 117
    mean_value: 123
  }
  data_param {
    source: "dataset/val_lmdb"
    batch_size: 50
    backend: LMDB
  }
}
layer {
  name: "conv1"
  type: "Convolution"
  bottom: "data"
  top: "conv1"
  param {
    lr_mult: 1
    decay_mult: 1
  }
  param {
    lr_mult: 2
    decay_mult: 0
  }
  convolution_param {
    num_output: 96
    kernel_size: 11
    stride: 4
    weight_filler {
      type: "gaussian"
      std: 0.01
    }
    bias_filler {
      type: "constant"
      value: 0
    }
  }
}
layer {
  name: "relu1"
  type: "ReLU"
  bottom: "conv1"
  top: "conv1"
}
layer {
  name: "pool1"
  type: "Pooling"
  bottom: "conv1"
  top: "pool1"
  pooling_param {
    pool: MAX
    kernel_size: 3
    stride: 2
  }
}
layer {
  name: "norm1"
  type: "LRN"
  bottom: "pool1"
  top: "norm1"
  lrn_param {
    local_size: 5
    alpha: 0.0001
    beta: 0.75
  }
}
layer {
  name: "conv2"
  type: "Convolution"
  bottom: "norm1"
  top: "conv2"
  param {
    lr_mult: 1
    decay_mult: 1
  }
  param {
    lr_mult: 2
    decay_mult: 0
  }
  convolution_param {
    num_output: 256
    pad: 2
    kernel_size: 5
    group: 2
    weight_filler {
      type: "gaussian"
      std: 0.01
    }
    bias_filler {
      type: "constant"
      value: 1
    }
  }
}
layer {
  name: "relu2"
  type: "ReLU"
  bottom: "conv2"
  top: "conv2"
}
layer {
  name: "pool2"
  type: "Pooling"
  bottom: "conv2"
  top: "pool2"
  pooling_param {
    pool: MAX
    kernel_size: 3
    stride: 2
  }
}
layer {
  name: "norm2"
  type: "LRN"
  bottom: "pool2"
  top: "norm2"
  lrn_param {
    local_size: 5
    alpha: 0.0001
    beta: 0.75
  }
}
layer {
  name: "conv3"
  type: "Convolution"
  bottom: "norm2"
  top: "conv3"
  param {
    lr_mult: 1
    decay_mult: 1
  }
  param {
    lr_mult: 2
    decay_mult: 0
  }
  convolution_param {
    num_output: 384
    pad: 1
    kernel_size: 3
    weight_filler {
      type: "gaussian"
      std: 0.01
    }
    bias_filler {
      type: "constant"
      value: 0
    }
  }
}
layer {
  name: "relu3"
  type: "ReLU"
  bottom: "conv3"
  top: "conv3"
}
layer {
  name: "conv4"
  type: "Convolution"
  bottom: "conv3"
  top: "conv4"
  param {
    lr_mult: 1
    decay_mult: 1
  }
  param {
    lr_mult: 2
    decay_mult: 0
  }
  convolution_param {
    num_output: 384
    pad: 1
    kernel_size: 3
    group: 2
    weight_filler {
      type: "gaussian"
      std: 0.01
    }
    bias_filler {
      type: "constant"
      value: 1
    }
  }
}
layer {
  name: "relu4"
  type: "ReLU"
  bottom: "conv4"
  top: "conv4"
}
layer {
  name: "conv5"
  type: "Convolution"
  bottom: "conv4"
  top: "conv5"
  param {
    lr_mult: 1
    decay_mult: 1
  }
  param {
    lr_mult: 2
    decay_mult: 0
  }
  convolution_param {
    num_output: 256
    pad: 1
    kernel_size: 3
    group: 2
    weight_filler {
      type: "gaussian"
      std: 0.01
    }
    bias_filler {
      type: "constant"
      value: 1
    }
  }
}
layer {
  name: "relu5"
  type: "ReLU"
  bottom: "conv5"
  top: "conv5"
}
layer {
  name: "pool5"
  type: "Pooling"
  bottom: "conv5"
  top: "pool5"
  pooling_param {
    pool: MAX
    kernel_size: 3
    stride: 2
  }
}
layer {
  name: "fc6"
  type: "InnerProduct"
  bottom: "pool5"
  top: "fc6"
  param {
    lr_mult: 1
    decay_mult: 1
  }
  param {
    lr_mult: 2
    decay_mult: 0
  }
  inner_product_param {
    num_output: 512
    weight_filler {
      type: "gaussian"
      std: 0.005
    }
    bias_filler {
      type: "constant"
      value: 1
    }
  }
}
layer {
  name: "relu6"
  type: "ReLU"
  bottom: "fc6"
  top: "fc6"
}
layer {
  name: "drop6"
  type: "Dropout"
  bottom: "fc6"
  top: "fc6"
  dropout_param {
    dropout_ratio: 0.5
  }
}
layer {
  name: "fc7"
  type: "InnerProduct"
  bottom: "fc6"
  top: "fc7"
  param {
    lr_mult: 1
    decay_mult: 1
  }
  param {
    lr_mult: 2
    decay_mult: 0
  }
  inner_product_param {
    num_output: 512
    weight_filler {
      type: "gaussian"
      std: 0.005
    }
    bias_filler {
      type: "constant"
      value: 1
    }
  }
}
layer {
  name: "relu7"
  type: "ReLU"
  bottom: "fc7"
  top: "fc7"
}
layer {
  name: "drop7"
  type: "Dropout"
  bottom: "fc7"
  top: "fc7"
  dropout_param {
    dropout_ratio: 0.5
  }
}
layer {
  name: "fc8"
  type: "InnerProduct"
  bottom: "fc7"
  top: "fc8"
  param {
    lr_mult: 1
    decay_mult: 1
  }
  param {
    lr_mult: 2
    decay_mult: 0
  }
  inner_product_param {
    num_output: 5
    weight_filler {
      type: "gaussian"
      std: 0.01
    }
    bias_filler {
      type: "constant"
      value: 0
    }
  }
}
layer {
  name: "accuracy"
  type: "Accuracy"
  bottom: "fc8"
  bottom: "label"
  top: "accuracy"
  include {
    phase: TEST
  }
}
layer {
  name: "loss"
  type: "SoftmaxWithLoss"
  bottom: "fc8"
  bottom: "label"
  top: "loss"
}
I0713 18:59:56.363466 25233 layer_factory.hpp:77] Creating layer data
I0713 18:59:56.363536 25233 db_lmdb.cpp:35] Opened lmdb dataset/val_lmdb
I0713 18:59:56.363556 25233 net.cpp:84] Creating Layer data
I0713 18:59:56.363571 25233 net.cpp:380] data -> data
I0713 18:59:56.363581 25233 net.cpp:380] data -> label
I0713 18:59:56.363903 25233 data_layer.cpp:45] output data size: 50,3,227,227
I0713 18:59:56.450598 25233 net.cpp:122] Setting up data
I0713 18:59:56.450649 25233 net.cpp:129] Top shape: 50 3 227 227 (7729350)
I0713 18:59:56.450654 25233 net.cpp:129] Top shape: 50 (50)
I0713 18:59:56.450659 25233 net.cpp:137] Memory required for data: 30917600
I0713 18:59:56.450668 25233 layer_factory.hpp:77] Creating layer label_data_1_split
I0713 18:59:56.450696 25233 net.cpp:84] Creating Layer label_data_1_split
I0713 18:59:56.450701 25233 net.cpp:406] label_data_1_split <- label
I0713 18:59:56.450711 25233 net.cpp:380] label_data_1_split -> label_data_1_split_0
I0713 18:59:56.450722 25233 net.cpp:380] label_data_1_split -> label_data_1_split_1
I0713 18:59:56.450793 25233 net.cpp:122] Setting up label_data_1_split
I0713 18:59:56.450801 25233 net.cpp:129] Top shape: 50 (50)
I0713 18:59:56.450805 25233 net.cpp:129] Top shape: 50 (50)
I0713 18:59:56.450808 25233 net.cpp:137] Memory required for data: 30918000
I0713 18:59:56.450811 25233 layer_factory.hpp:77] Creating layer conv1
I0713 18:59:56.450827 25233 net.cpp:84] Creating Layer conv1
I0713 18:59:56.450830 25233 net.cpp:406] conv1 <- data
I0713 18:59:56.450837 25233 net.cpp:380] conv1 -> conv1
I0713 18:59:56.453018 25233 net.cpp:122] Setting up conv1
I0713 18:59:56.453033 25233 net.cpp:129] Top shape: 50 96 55 55 (14520000)
I0713 18:59:56.453037 25233 net.cpp:137] Memory required for data: 88998000
I0713 18:59:56.453049 25233 layer_factory.hpp:77] Creating layer relu1
I0713 18:59:56.453058 25233 net.cpp:84] Creating Layer relu1
I0713 18:59:56.453060 25233 net.cpp:406] relu1 <- conv1
I0713 18:59:56.453066 25233 net.cpp:367] relu1 -> conv1 (in-place)
I0713 18:59:56.460220 25233 net.cpp:122] Setting up relu1
I0713 18:59:56.460247 25233 net.cpp:129] Top shape: 50 96 55 55 (14520000)
I0713 18:59:56.460250 25233 net.cpp:137] Memory required for data: 147078000
I0713 18:59:56.460254 25233 layer_factory.hpp:77] Creating layer pool1
I0713 18:59:56.460263 25233 net.cpp:84] Creating Layer pool1
I0713 18:59:56.460268 25233 net.cpp:406] pool1 <- conv1
I0713 18:59:56.460273 25233 net.cpp:380] pool1 -> pool1
I0713 18:59:56.460333 25233 net.cpp:122] Setting up pool1
I0713 18:59:56.460341 25233 net.cpp:129] Top shape: 50 96 27 27 (3499200)
I0713 18:59:56.460345 25233 net.cpp:137] Memory required for data: 161074800
I0713 18:59:56.460347 25233 layer_factory.hpp:77] Creating layer norm1
I0713 18:59:56.460355 25233 net.cpp:84] Creating Layer norm1
I0713 18:59:56.460359 25233 net.cpp:406] norm1 <- pool1
I0713 18:59:56.460372 25233 net.cpp:380] norm1 -> norm1
I0713 18:59:56.460863 25233 net.cpp:122] Setting up norm1
I0713 18:59:56.460889 25233 net.cpp:129] Top shape: 50 96 27 27 (3499200)
I0713 18:59:56.460892 25233 net.cpp:137] Memory required for data: 175071600
I0713 18:59:56.460896 25233 layer_factory.hpp:77] Creating layer conv2
I0713 18:59:56.460906 25233 net.cpp:84] Creating Layer conv2
I0713 18:59:56.460911 25233 net.cpp:406] conv2 <- norm1
I0713 18:59:56.460916 25233 net.cpp:380] conv2 -> conv2
I0713 18:59:56.466302 25233 net.cpp:122] Setting up conv2
I0713 18:59:56.466329 25233 net.cpp:129] Top shape: 50 256 27 27 (9331200)
I0713 18:59:56.466333 25233 net.cpp:137] Memory required for data: 212396400
I0713 18:59:56.466342 25233 layer_factory.hpp:77] Creating layer relu2
I0713 18:59:56.466348 25233 net.cpp:84] Creating Layer relu2
I0713 18:59:56.466351 25233 net.cpp:406] relu2 <- conv2
I0713 18:59:56.466358 25233 net.cpp:367] relu2 -> conv2 (in-place)
I0713 18:59:56.466800 25233 net.cpp:122] Setting up relu2
I0713 18:59:56.466812 25233 net.cpp:129] Top shape: 50 256 27 27 (9331200)
I0713 18:59:56.466826 25233 net.cpp:137] Memory required for data: 249721200
I0713 18:59:56.466830 25233 layer_factory.hpp:77] Creating layer pool2
I0713 18:59:56.466840 25233 net.cpp:84] Creating Layer pool2
I0713 18:59:56.466845 25233 net.cpp:406] pool2 <- conv2
I0713 18:59:56.466850 25233 net.cpp:380] pool2 -> pool2
I0713 18:59:56.466928 25233 net.cpp:122] Setting up pool2
I0713 18:59:56.466936 25233 net.cpp:129] Top shape: 50 256 13 13 (2163200)
I0713 18:59:56.466939 25233 net.cpp:137] Memory required for data: 258374000
I0713 18:59:56.466943 25233 layer_factory.hpp:77] Creating layer norm2
I0713 18:59:56.466948 25233 net.cpp:84] Creating Layer norm2
I0713 18:59:56.466951 25233 net.cpp:406] norm2 <- pool2
I0713 18:59:56.466958 25233 net.cpp:380] norm2 -> norm2
I0713 18:59:56.467165 25233 net.cpp:122] Setting up norm2
I0713 18:59:56.467175 25233 net.cpp:129] Top shape: 50 256 13 13 (2163200)
I0713 18:59:56.467180 25233 net.cpp:137] Memory required for data: 267026800
I0713 18:59:56.467182 25233 layer_factory.hpp:77] Creating layer conv3
I0713 18:59:56.467192 25233 net.cpp:84] Creating Layer conv3
I0713 18:59:56.467195 25233 net.cpp:406] conv3 <- norm2
I0713 18:59:56.467203 25233 net.cpp:380] conv3 -> conv3
I0713 18:59:56.478703 25233 net.cpp:122] Setting up conv3
I0713 18:59:56.478739 25233 net.cpp:129] Top shape: 50 384 13 13 (3244800)
I0713 18:59:56.478744 25233 net.cpp:137] Memory required for data: 280006000
I0713 18:59:56.478756 25233 layer_factory.hpp:77] Creating layer relu3
I0713 18:59:56.478766 25233 net.cpp:84] Creating Layer relu3
I0713 18:59:56.478770 25233 net.cpp:406] relu3 <- conv3
I0713 18:59:56.478778 25233 net.cpp:367] relu3 -> conv3 (in-place)
I0713 18:59:56.479215 25233 net.cpp:122] Setting up relu3
I0713 18:59:56.479241 25233 net.cpp:129] Top shape: 50 384 13 13 (3244800)
I0713 18:59:56.479245 25233 net.cpp:137] Memory required for data: 292985200
I0713 18:59:56.479249 25233 layer_factory.hpp:77] Creating layer conv4
I0713 18:59:56.479260 25233 net.cpp:84] Creating Layer conv4
I0713 18:59:56.479264 25233 net.cpp:406] conv4 <- conv3
I0713 18:59:56.479270 25233 net.cpp:380] conv4 -> conv4
I0713 18:59:56.488533 25233 net.cpp:122] Setting up conv4
I0713 18:59:56.488561 25233 net.cpp:129] Top shape: 50 384 13 13 (3244800)
I0713 18:59:56.488565 25233 net.cpp:137] Memory required for data: 305964400
I0713 18:59:56.488574 25233 layer_factory.hpp:77] Creating layer relu4
I0713 18:59:56.488582 25233 net.cpp:84] Creating Layer relu4
I0713 18:59:56.488587 25233 net.cpp:406] relu4 <- conv4
I0713 18:59:56.488592 25233 net.cpp:367] relu4 -> conv4 (in-place)
I0713 18:59:56.489042 25233 net.cpp:122] Setting up relu4
I0713 18:59:56.489053 25233 net.cpp:129] Top shape: 50 384 13 13 (3244800)
I0713 18:59:56.489068 25233 net.cpp:137] Memory required for data: 318943600
I0713 18:59:56.489071 25233 layer_factory.hpp:77] Creating layer conv5
I0713 18:59:56.489084 25233 net.cpp:84] Creating Layer conv5
I0713 18:59:56.489087 25233 net.cpp:406] conv5 <- conv4
I0713 18:59:56.489095 25233 net.cpp:380] conv5 -> conv5
I0713 18:59:56.496018 25233 net.cpp:122] Setting up conv5
I0713 18:59:56.496037 25233 net.cpp:129] Top shape: 50 256 13 13 (2163200)
I0713 18:59:56.496039 25233 net.cpp:137] Memory required for data: 327596400
I0713 18:59:56.496053 25233 layer_factory.hpp:77] Creating layer relu5
I0713 18:59:56.496062 25233 net.cpp:84] Creating Layer relu5
I0713 18:59:56.496064 25233 net.cpp:406] relu5 <- conv5
I0713 18:59:56.496070 25233 net.cpp:367] relu5 -> conv5 (in-place)
I0713 18:59:56.496537 25233 net.cpp:122] Setting up relu5
I0713 18:59:56.496551 25233 net.cpp:129] Top shape: 50 256 13 13 (2163200)
I0713 18:59:56.496556 25233 net.cpp:137] Memory required for data: 336249200
I0713 18:59:56.496570 25233 layer_factory.hpp:77] Creating layer pool5
I0713 18:59:56.496585 25233 net.cpp:84] Creating Layer pool5
I0713 18:59:56.496590 25233 net.cpp:406] pool5 <- conv5
I0713 18:59:56.496596 25233 net.cpp:380] pool5 -> pool5
I0713 18:59:56.496646 25233 net.cpp:122] Setting up pool5
I0713 18:59:56.496654 25233 net.cpp:129] Top shape: 50 256 6 6 (460800)
I0713 18:59:56.496657 25233 net.cpp:137] Memory required for data: 338092400
I0713 18:59:56.496660 25233 layer_factory.hpp:77] Creating layer fc6
I0713 18:59:56.496670 25233 net.cpp:84] Creating Layer fc6
I0713 18:59:56.496673 25233 net.cpp:406] fc6 <- pool5
I0713 18:59:56.496680 25233 net.cpp:380] fc6 -> fc6
I0713 18:59:56.551751 25233 net.cpp:122] Setting up fc6
I0713 18:59:56.551785 25233 net.cpp:129] Top shape: 50 512 (25600)
I0713 18:59:56.551789 25233 net.cpp:137] Memory required for data: 338194800
I0713 18:59:56.551811 25233 layer_factory.hpp:77] Creating layer relu6
I0713 18:59:56.551826 25233 net.cpp:84] Creating Layer relu6
I0713 18:59:56.551831 25233 net.cpp:406] relu6 <- fc6
I0713 18:59:56.551838 25233 net.cpp:367] relu6 -> fc6 (in-place)
I0713 18:59:56.552126 25233 net.cpp:122] Setting up relu6
I0713 18:59:56.552136 25233 net.cpp:129] Top shape: 50 512 (25600)
I0713 18:59:56.552139 25233 net.cpp:137] Memory required for data: 338297200
I0713 18:59:56.552143 25233 layer_factory.hpp:77] Creating layer drop6
I0713 18:59:56.552150 25233 net.cpp:84] Creating Layer drop6
I0713 18:59:56.552155 25233 net.cpp:406] drop6 <- fc6
I0713 18:59:56.552160 25233 net.cpp:367] drop6 -> fc6 (in-place)
I0713 18:59:56.552203 25233 net.cpp:122] Setting up drop6
I0713 18:59:56.552211 25233 net.cpp:129] Top shape: 50 512 (25600)
I0713 18:59:56.552214 25233 net.cpp:137] Memory required for data: 338399600
I0713 18:59:56.552217 25233 layer_factory.hpp:77] Creating layer fc7
I0713 18:59:56.552225 25233 net.cpp:84] Creating Layer fc7
I0713 18:59:56.552228 25233 net.cpp:406] fc7 <- fc6
I0713 18:59:56.552237 25233 net.cpp:380] fc7 -> fc7
I0713 18:59:56.563635 25233 net.cpp:122] Setting up fc7
I0713 18:59:56.563660 25233 net.cpp:129] Top shape: 50 512 (25600)
I0713 18:59:56.563664 25233 net.cpp:137] Memory required for data: 338502000
I0713 18:59:56.563671 25233 layer_factory.hpp:77] Creating layer relu7
I0713 18:59:56.563678 25233 net.cpp:84] Creating Layer relu7
I0713 18:59:56.563681 25233 net.cpp:406] relu7 <- fc7
I0713 18:59:56.563688 25233 net.cpp:367] relu7 -> fc7 (in-place)
I0713 18:59:56.564177 25233 net.cpp:122] Setting up relu7
I0713 18:59:56.564189 25233 net.cpp:129] Top shape: 50 512 (25600)
I0713 18:59:56.564203 25233 net.cpp:137] Memory required for data: 338604400
I0713 18:59:56.564208 25233 layer_factory.hpp:77] Creating layer drop7
I0713 18:59:56.564215 25233 net.cpp:84] Creating Layer drop7
I0713 18:59:56.564220 25233 net.cpp:406] drop7 <- fc7
I0713 18:59:56.564227 25233 net.cpp:367] drop7 -> fc7 (in-place)
I0713 18:59:56.564267 25233 net.cpp:122] Setting up drop7
I0713 18:59:56.564275 25233 net.cpp:129] Top shape: 50 512 (25600)
I0713 18:59:56.564277 25233 net.cpp:137] Memory required for data: 338706800
I0713 18:59:56.564280 25233 layer_factory.hpp:77] Creating layer fc8
I0713 18:59:56.564290 25233 net.cpp:84] Creating Layer fc8
I0713 18:59:56.564292 25233 net.cpp:406] fc8 <- fc7
I0713 18:59:56.564299 25233 net.cpp:380] fc8 -> fc8
I0713 18:59:56.564460 25233 net.cpp:122] Setting up fc8
I0713 18:59:56.564469 25233 net.cpp:129] Top shape: 50 5 (250)
I0713 18:59:56.564472 25233 net.cpp:137] Memory required for data: 338707800
I0713 18:59:56.564478 25233 layer_factory.hpp:77] Creating layer fc8_fc8_0_split
I0713 18:59:56.564486 25233 net.cpp:84] Creating Layer fc8_fc8_0_split
I0713 18:59:56.564489 25233 net.cpp:406] fc8_fc8_0_split <- fc8
I0713 18:59:56.564496 25233 net.cpp:380] fc8_fc8_0_split -> fc8_fc8_0_split_0
I0713 18:59:56.564502 25233 net.cpp:380] fc8_fc8_0_split -> fc8_fc8_0_split_1
I0713 18:59:56.564541 25233 net.cpp:122] Setting up fc8_fc8_0_split
I0713 18:59:56.564548 25233 net.cpp:129] Top shape: 50 5 (250)
I0713 18:59:56.564553 25233 net.cpp:129] Top shape: 50 5 (250)
I0713 18:59:56.564563 25233 net.cpp:137] Memory required for data: 338709800
I0713 18:59:56.564565 25233 layer_factory.hpp:77] Creating layer accuracy
I0713 18:59:56.564574 25233 net.cpp:84] Creating Layer accuracy
I0713 18:59:56.564577 25233 net.cpp:406] accuracy <- fc8_fc8_0_split_0
I0713 18:59:56.564581 25233 net.cpp:406] accuracy <- label_data_1_split_0
I0713 18:59:56.564590 25233 net.cpp:380] accuracy -> accuracy
…
